tag_00_Dec2023_simpleControlTurbulence/agentData/pretrained_critic.pt (torch, 142991 bytes, 7 tensors)

weight f4 [128, 12]
000000 46 2b a0 3e 67 ca 30 3e f3 c8 0f be d7 cc 17 bd
       0.31283015 0.1726471 -0.140415 -0.037060585
000010 37 e3 c3 3c 38 41 2e bd 16 c5 d5 bc dd 3b 4e 3e
       0.023912055 -0.042542666 -0.026094954 0.20140024
000020 eb 50 85 3e 31 8c db 3d c7 6c 1f be 7d 14 07 be
       0.26038298 0.10720099 -0.15568839 -0.1319141
000030 6e c0 44 be 57 82 14 3e a7 a1 af 3e 2c 28 81 3e
       -0.19214031 0.14502846 0.34303018 0.2522596
000040 1e b5 a4 bd 1d 16 9c 3e dd 5c dc bc 43 e4 93 3e
       -0.08042358 0.3048562 -0.02689975 0.28885087
000050 65 6e 61 be 7f 88 27 3e cd f8 2e 3e 69 58 1e 3e
       -0.22014768 0.16360663 0.17087097 0.15463413
000060 63 84 8f 3d 77 7e fa bc 4d b0 c9 bd 23 9b 8a be
       0.07007673 -0.030577881 -0.0984808 -0.27071485
000070 68 27 7b 3c 27 7a 13 3e b1 f6 26 3e aa b9 24 3d
       0.015329219 0.14402066 0.16305043 0.040216126
000080 f2 53 45 3e 6a 0b 37 3e a6 48 f6 3d 1a 40 7d bd
       0.19270304 0.17875448 0.12025575 -0.06182871
000090 14 67 44 3d d5 2b 46 be ac f8 0f be df 4b 1f be
       0.047949865 -0.19352658 -0.14059705 -0.15556286
0000a0 5f f2 93 3e a5 cd 0b 3e 16 53 4d 3e b9 63 26 bc
       0.28895852 0.13652666 0.20051226 -0.010155612
0000b0 37 70 51 3e 19 00 b0 bd c5 03 63 3e f4 14 8d be
       0.20452963 -0.085937686 0.22169407 -0.27555048
0000c0 21 ed 8c be af 84 83 be cb 24 af 3e aa 97 1e 3e
       -0.27524665 -0.25687167 0.34207758 0.15487543
0000d0 f1 5c 35 3e 55 c2 1a 3e 6b 82 04 3e 04 97 65 3e
       0.17711236 0.15113194 0.12940376 0.22420889
0000e0 20 03 3f 3d 5a fd 84 bd f4 43 f1 bd 1d 37 08 3e
       0.04663384 -0.064936355 -0.11780539 0.13302274
0000f0 5f 2d 07 be 42 ab bf be aa e8 3a be cd 37 d7 3c
       -0.13200901 -0.37435347 -0.18252817 0.026271725
000100 71 3e 1f be 9d 2b aa be 5d 6e 8a be 4b 15 83 bc
       -0.15551163 -0.332364 -0.27037326 -0.016001364
000110 13 62 54 3d db 76 2a be 96 cd a3 be e1 ea 18 3e
       0.051851343 -0.16646902 -0.31992787 0.14933349
000120 09 d8 da 3d d7 1d 67 bc a1 bc 5f be 6d 74 88 3e
       0.10685737 -0.0141062355 -0.218493 0.26651326
000130 b7 59 60 be 6e 38 8a bd ce f1 45 3e 54 fd 6f 3e
       -0.21909223 -0.06749044 0.19330522 0.23436481
000140 48 9d 6d 3e 0f 0a 6a be 9b ca 93 3e 8b 29 66 be
       0.2320453 -0.228554 0.28865513 -0.22476785
000150 9c 81 da 3d a8 d4 80 3e 1d 96 23 3e 86 40 d8 bd
       0.10669252 0.25162244 0.15975232 -0.10559182
000160 98 d7 78 be f2 c4 50 3e 46 c4 74 3e 55 28 bb bd
       -0.24300992 0.20387629 0.23902997 -0.09138552
000170 1b 0e 64 3d 0e db 54 3e d0 92 62 3e dd 6b 8c 3d
       0.055677515 0.20786688 0.22126317 0.06856511
000180 e1 e4 9b be 6e 01 9f 3d 6e 7e 7c 3e da bb 1e be
       -0.30448058 0.077639446 0.24657604 -0.15501347
000190 1a 53 ca bc ad fb 11 bd f9 a5 8e 3e 62 68 a4 bd
       -0.024697829 -0.035640407 0.27861002 -0.08027722
0001a0 c4 a1 a4 3d fb 34 5f 3e 2c 3d 33 bd e4 5c 99 3e
       0.08038667 0.21797554 -0.04375951 0.29953682
0001b0 25 65 48 3e 69 85 28 be c5 59 b2 bd 3d a3 9b be
       0.19569834 -0.16457142 -0.087085284 -0.30397978
0001c0 9a 6f 63 3e 89 7e 2f be 6a d0 de 3d c8 85 a0 3c
       0.22210541 -0.17138113 0.108795956 0.019595042
0001d0 b9 49 b4 bc 68 51 c1 3d 25 61 1c be 6a 73 99 3e
       -0.02200781 0.09439355 -0.15271433 0.29970866
0001e0 9a 89 95 3e 1f 29 ea 3d 74 db 67 be 05 8b 1a 3e
       0.29206544 0.114336245 -0.22642308 0.15092094
0001f0 41 77 59 be 73 ce 27 be 8f a9 a2 3e c0 5b 5c be
       -0.21236898 -0.16387348 0.31769988 -0.21519375
000200 3d 76 63 be a3 67 a0 3e 08 89 80 bd a4 0b 58 be
       -0.22213073 0.3132907 -0.06276137 -0.2109819
000210 7e f1 9d bd f2 a9 dc bd 13 6b 77 3e 1a e1 2e bc
       -0.077120766 -0.10774602 0.2416194 -0.010673786
000220 26 86 56 be 5a d4 63 be 48 67 76 3e 01 0f 28 be
       -0.20949611 -0.22248974 0.24062836 -0.16411974
000230 97 8a 86 bd 82 d8 b4 bd 9e 98 ae bd 5e 8c 20 3e
       -0.06569403 -0.08830358 -0.08525203 0.15678546
000240 6d 09 02 be 90 ed ac be 7e 47 98 3d a1 d7 84 3d
       -0.12698908 -0.33774996 0.07435511 0.064864404
000250 93 fa 82 be 96 d7 28 be 2b 75 5a be e7 bd 20 3d
       -0.25581798 -0.1648849 -0.21333759 0.039243605
000260 a2 d2 7c 3d 63 ad 33 3e 09 d3 90 3e d8 40 f7 3d
       0.061724313 0.1754661 0.28286007 0.12072915
000270 ca 26 8f be 2a 23 75 3e 72 64 ae be 69 45 0c be
       -0.2795928 0.23939195 -0.3406101 -0.13698353
000280 82 fd 9b be 2b de 2b 3e 45 ae 9c bd b5 9d ad bc
       -0.3046685 0.16783969 -0.07650427 -0.021193365
000290 09 ff 55 be af e7 16 be 15 42 8c be 5b 31 13 3e
       -0.2089807 -0.14736818 -0.27394167 0.14374296
0002a0 98 15 4c 3e 79 87 3d 3e 3e 50 44 3e b0 28 92 3e
       0.19930112 0.1850871 0.19171235 0.28546667
0002b0 c0 ba 3e 3e 55 6e 8e be a6 e3 d2 3d 40 9b 4e be
       0.18625927 -0.27818552 0.10297327 -0.2017641
0002c0 f1 de 78 3e 0a 6d b3 bc ff 2c d9 bd 2b d9 dd 3d
       0.24303795 -0.02190258 -0.106042854 0.10832437
0002d0 97 f2 20 be 51 1e 17 3c c8 e1 46 be 86 b2 01 3d
       -0.1571754 0.009223537 -0.19422066 0.031664394
0002e0 c7 2b 3e 3e a0 b9 a5 bd a1 7b 47 bd 00 ce 4a 3d
       0.18571387 -0.08092046 -0.048701886 0.049512863
0002f0 01 03 ea bb 81 14 f0 bd ca 16 38 3e 98 89 7c 3e
       -0.0071414714 -0.11722661 0.17977443 0.24661863
000300 9f 5d 7d 3d e0 39 f2 3b 9b 87 39 3e 5b c3 0e be
       0.061856862 0.007392153 0.18118136 -0.1394171
000310 2c f0 6d 3e 9c 32 64 bd d9 e2 69 be 09 1b 76 bc
       0.2323615 -0.055712327 -0.22840442 -0.015021094
000320 92 f7 47 be b7 40 bb 3d cd b2 02 3e b9 28 64 3e
       -0.19528034 0.09143203 0.1276352 0.2228116
000330 16 56 50 3e 81 33 2c bd 7d e3 15 3e 3d ab 3a be
       0.20345339 -0.042041305 0.14637561 -0.18229385
000340 36 b9 24 be 0f 5b c3 3d 58 ec 79 be a1 d4 9c bc
       -0.16086277 0.095388524 -0.24406564 -0.019144358
000350 1a bc 9a bd f0 d9 3f 3e db 47 f0 3d 4a 6c 8e be
       -0.07555409 0.1873548 0.11732455 -0.27816993
000360 b9 61 3b be 5c 20 b2 3d c5 b2 c0 3d cd 4d 8b 3b
       -0.18298997 0.08697578 0.094090976 0.004251218
000370 9e 84 3a 3e 75 12 07 bd c5 3f 93 3d 13 40 fa 3c
       0.18214652 -0.032976586 0.071898974 0.030548131
000380 73 f0 86 3e 47 89 eb bd 61 c7 ce bd 46 e4 22 3e
       0.26355323 -0.11500793 -0.10096622 0.15907392
000390 bf 3b 74 3a db 77 05 be fa bc 92 be d5 31 27 3e
       0.0009316764 -0.13034002 -0.28659803 0.16327603
0003a0 95 3d 4b 3b 67 c1 d6 3d d0 f4 91 bc 01 0a 8f 3d
       0.0031012048 0.10486107 -0.017816931 0.0698433
0003b0 ee 32 05 bc c6 ef 8a bd d6 f4 34 3d 56 80 1e 3e
       -0.008129818 -0.067840144 0.044178806 0.15478644
0003c0 e5 03 44 3d a9 25 09 be 19 95 92 be 8e 00 2e 3e
       0.047855277 -0.13393272 -0.28629377 0.16992399
0003d0 eb 7f bd 3d d1 9e e6 bc 5e 05 ca bd d0 3e 6d 3e
       0.09252914 -0.028151901 -0.09864305 0.23168492
0003e0 ef ad 91 3e e3 1a b6 bd 22 f4 82 bd ce df d2 3c
       0.28453013 -0.08891847 -0.06394221 0.025741484
0003f0 32 07 7c 3e aa 20 84 3d d0 b3 86 be 06 fb 98 3e
       0.2461212 0.06451543 -0.2630906 0.29879016

bias f4 [128]
000000 1b eb 9e bd 54 e2 84 be f3 1e 45 3e d1 60 81 3d
       -0.077596866 -0.25953925 0.19250087 0.063172944
000010 6c 07 08 3c e2 f3 ae be 5c 18 ec bb 60 79 01 be
       0.008302551 -0.34170443 -0.0072050523 -0.12643957
000020 33 01 8e bd 32 00 c6 3d 8b 20 4c 3e eb cd 7f 3d
       -0.069338225 0.09668006 0.19934289 0.062452238
000030 7f fd 33 be 78 be 94 be ba 50 81 be a6 73 82 3e
       -0.1757717 -0.29051566 -0.25256902 0.25478858
000040 52 48 2a 3d 92 ed 85 3e 7b 37 e2 bd 8c 23 9b 3e
       0.041572876 0.26157814 -0.11045738 0.30300558
000050 88 56 4f bc 7a f1 86 bd ac 9f 50 3e 39 98 ac 3e
       -0.012654908 -0.06589027 0.2037341 0.33709887
000060 60 98 7c 3e 8b 2f f5 bd 03 31 7d bd 94 ae 85 be
       0.24667501 -0.11971959 -0.06181432 -0.26109755
000070 c2 08 0f 3e c7 e6 91 3d e3 9f 9d be d2 f6 bb 3d
       0.13968185 0.071240954 -0.30786046 0.091779366
000080 51 88 80 be 29 4f 48 be b8 32 2e be 9d 3b 4f bd
       -0.25104 -0.19561447 -0.17011535 -0.05059396
000090 b9 9f 11 3e 9f e1 aa 3c dc 74 1f 3d f1 b4 50 be
       0.14221086 0.020859538 0.038929805 -0.20381524
0000a0 33 fc f5 3d d0 06 f0 3d a1 6a 86 bd d9 e4 8e 3e
       0.12010994 0.117200494 -0.065633066 0.27908972
0000b0 5d f8 06 3e d7 d2 02 3d 80 62 42 bd ea 47 09 3c
       0.1318068 0.031939354 -0.04745722 0.008378962
0000c0 06 50 5a bb de 5c 54 3e 29 16 61 3d af 59 24 3e
       -0.0033311858 0.20738551 0.054952774 0.16049837
0000d0 9c ff 93 bd ef 21 84 be bd 05 b4 bd d8 a7 a4 bd
       -0.07226488 -0.2580714 -0.08790157 -0.08039826
0000e0 33 9a a3 bd db 19 2d 3d 40 fd 96 be ac bc 24 3e
       -0.079883955 0.042260986 -0.2949009 0.16087598
0000f0 a0 21 5f be 9b 9e 6c 3c cb a8 b8 be ce e5 73 bb
       -0.2179017 0.014442111 -0.3606628 -0.0037215832
000100 ef 17 95 be c2 b0 b2 bd 3d 26 98 3e a2 b3 5f be
       -0.29119822 -0.0872512 0.29716673 -0.21845868
000110 01 85 99 be f0 33 b8 bc a5 c3 aa be 85 b4 a1 be
       -0.29984286 -0.022485703 -0.3335239 -0.31583038
000120 18 f5 ef 3d ff da 08 3e 95 46 12 be 0c e0 a2 be
       0.1171667 0.1336479 -0.14284737 -0.3181156
000130 00 f1 19 be dd 6f 7f be 54 56 86 be 7d 39 68 3c
       -0.1503334 -0.24945016 -0.26237738 0.0141738625
000140 90 c3 eb 3d a1 87 f2 3b 40 e3 34 3e 84 51 39 be
       0.1151191 0.007401422 0.17664814 -0.18097502
000150 25 c3 26 3e f4 ca 0b 3e 52 76 43 be e9 2d f3 bd
       0.16285379 0.13651639 -0.19088104 -0.11873991
000160 79 84 d5 bd 46 25 cb 3d e5 5f 63 be 4e 59 8d 3d
       -0.10425658 0.09919219 -0.2220455 0.06901799
000170 c4 48 97 be 0c fa a4 be 9f 78 32 be d4 ef 44 3e
       -0.29547703 -0.3222202 -0.17428826 0.19232112
000180 0e 59 8d 3e 49 cd 09 3d e5 74 47 3e d7 ce af 3e
       0.27607006 0.03364304 0.19478185 0.34337494
000190 1d 99 c4 bd 58 72 0e be 86 12 b6 bd 47 0d 2c 3e
       -0.095995165 -0.13910806 -0.08890252 0.1680194
0001a0 0f 99 74 be 0f 2a 40 be b8 a7 19 3e c0 20 9c 3e
       -0.23886512 -0.18766044 0.15005386 0.30493736
0001b0 c0 37 13 be c0 84 78 3d 71 80 98 be a5 9c 23 bd
       -0.14376736 0.060673475 -0.29785493 -0.03994431
0001c0 1e 46 02 3e 5b a0 83 3e 46 19 5f 3e d1 b0 b9 bd
       0.1272206 0.2570828 0.21786985 -0.09066928
0001d0 31 3c cd 3d 30 bb 1d 3e 31 20 f4 3c 21 91 8b be
       0.10021246 0.15403438 0.029800506 -0.27259162
0001e0 61 50 17 3e 01 c3 b4 bd 2a 4d 62 3d c7 2a 6a 3e
       0.14776756 -0.088262565 0.05524937 0.22867881
0001f0 83 68 a1 3c 91 b9 2f 3e 66 76 79 be da ee 67 3d
       0.019703155 0.17160632 -0.24361572 0.05662427

weight f4 [128, 128]
000000 0a 97 1c 3d 96 cc 21 3c 8b 21 34 3c 90 fc 10 be
       0.03822998 0.009875437 0.010994325 -0.14158845
000010 25 cc ff 3c 2b 3d 0a 3d c6 a8 1e bd 14 55 3b bd
       0.031225273 0.03374974 -0.038735174 -0.045735434
000020 9c 91 e5 3d 2b d1 0f bd df 8a 35 be 71 56 38 3c
       0.112094134 -0.035111587 -0.17728756 0.011251078
000030 2f 82 a3 3c 3f 52 1d 3c a1 2f 06 3d a6 20 69 bc
       0.019959537 0.0096021285 0.032760266 -0.014228975
000040 5d a7 0c 3d 8c 7f 55 3d f2 d8 2e 3d 5c 01 00 be
       0.034339298 0.05212359 0.042687364 -0.12500519
000050 7c ef 18 bd cc cd 35 bd c5 22 8c 3d a5 1d ce bd
       -0.037337765 -0.044385716 0.06842569 -0.10064248
000060 e0 7f b1 bd c5 b0 57 3d 2a d5 26 3d e0 c3 a7 bd
       -0.08666968 0.052658815 0.040730633 -0.08191657
000070 9a 43 7f 3d 05 08 10 3d 0d 59 d0 3d a2 45 86 bd
       0.06232033 0.035163898 0.10173235 -0.0655625
000080 ee d6 b6 3d 7a 2c f6 3d db 88 48 3d 0b 38 d9 3c
       0.08927713 0.12020202 0.04895864 0.026515981
000090 0f fb 8a 3d f8 30 f0 bb 38 03 d3 bc 37 8a e6 3c
       0.06786167 -0.0073300563 -0.02575837 0.028142078
0000a0 3d bc e8 3d b7 fc 04 be a5 9f 08 bd 68 d3 0e 3d
       0.113640286 -0.12987028 -0.033355374 0.03486958
0000b0 d7 90 0e be 34 c1 f7 3c fa 8f 8d bd 9c 65 a0 3d
       -0.1392244 0.030243494 -0.06912227 0.078318805
0000c0 3e f2 59 bd e6 7a c4 bd 6d a1 d8 3d 0f 8a e0 3b
       -0.053209536 -0.095937535 0.105776645 0.0068523954
0000d0 ea 8a 09 3d 47 a1 89 bd 6d 3c 0c bd f4 97 68 3d
       0.033579744 -0.06720214 -0.034237314 0.05678554
0000e0 71 1e 8b 3d 9e 64 5b 3d f3 6a 15 3c ef a9 c1 bb
       0.067929156 0.053562753 0.009119737 -0.0059101502
0000f0 56 50 2e 3d a2 fc 5f bd 92 68 04 3e 07 d2 1c bb
       0.042557083 -0.05468429 0.12930515 -0.0023928897
000100 e2 ee 1f 3e 97 06 4d 3d d5 5a d2 bc 62 0d af 3d
       0.1561847 0.050055113 -0.025678078 0.085474744
000110 f9 f4 42 3e 6b 65 eb 3c 55 35 e6 3c cc 0c 5d 3c
       0.19038762 0.028734883 0.028101603 0.013491821
000120 51 d4 88 3d 32 ad b3 3d de 96 e9 bc ff e5 ab bc
       0.06681121 0.08773269 -0.028514322 -0.020983694
000130 7c 83 ae 3d ee 0f 35 3e 4b b2 66 3d 36 c7 56 be
       0.085211724 0.17681858 0.056322377 -0.2097443
000140 47 ea 98 3d f5 28 fe bc f8 89 ea bd 9a de de bc
       0.0746656 -0.03102539 -0.11452097 -0.027205754
000150 6b 3a f9 bd 85 7c 9f bc a6 1c 8b bd 76 81 9e bd
       -0.121693455 -0.019468555 -0.06792574 -0.077395365
000160 56 91 a4 3d 05 ae d6 bd e0 5d 01 3e aa 8c a7 bc
       0.08035533 -0.1048241 0.12633467 -0.020452816
000170 97 d9 1a 3c cc 97 95 bc a8 e2 c9 bc a2 35 21 3d
       0.0094512915 -0.018260859 -0.024644211 0.03935779
000180 77 2c 2c be 98 e3 40 bd 37 67 c3 bd 86 75 b3 bd
       -0.16813837 -0.04709205 -0.09541171 -0.0876265
000190 a3 2b 0b 3e 39 0c 31 3d 3d 41 b1 bb a3 36 d8 3d
       0.13590865 0.043224547 -0.0054093883 0.10557296
0001a0 ba 06 2c 3c 66 35 56 bd ad a0 43 be 14 cb b0 ba
       0.010499651 -0.05229702 -0.19104262 -0.0013488256
0001b0 b1 e9 db 3d 20 77 1e bd 14 f2 b2 3d 1c db e9 bc
       0.107379325 -0.038687825 0.08737579 -0.028546862
0001c0 25 73 11 ba 9b 4c 01 3e 32 0f c0 3d a6 43 d3 3d
       -0.0005548469 0.12626879 0.09377898 0.10315637
0001d0 a8 a7 37 3e 44 23 f1 bd 6a 83 a5 bd 97 fe b6 3d
       0.1793505 -0.117743045 -0.08081706 0.08935278
0001e0 90 96 d6 3d 98 f4 a3 3a cc 8e 65 3c 4e 3e 49 bc
       0.10477936 0.0012508808 0.014011096 -0.012282921
0001f0 bd ee 97 3d 3e 6c 51 bd 02 62 ef bc df 69 0b 3e
       0.074185826 -0.05112862 -0.029221538 0.13614605
000200 74 ef e0 bd a2 65 ad 3c 70 c6 10 bd 5a 55 8c bd
       -0.10983172 0.021166626 -0.035345495 -0.06852217
000210 ae 72 2a 3c 29 c8 6f 3d 69 e3 9e bd 16 34 3f 3c
       0.010403318 0.058540497 -0.07758219 0.011670133
000220 5f a0 2c 3e c9 34 2c bd 07 86 53 be 5f 5d 18 3e
       0.16858052 -0.042042527 -0.20656596 0.14879368
000230 d3 e3 44 bd 89 05 15 3c 02 4c 32 3e 36 fb b3 bd
       -0.048068833 0.009095558 0.17411807 -0.08788149
000240 e2 ca 89 3b a5 19 d3 bc 4b f0 d2 3d 25 05 c9 bd
       0.0042050937 -0.025769064 0.102997385 -0.09815434
000250 3b 2a 0f bd 40 26 0e 3d 8b e2 44 3d 5e 86 13 bc
       -0.034952383 0.034704447 0.04806761 -0.009004204
000260 13 43 ff bc f6 f3 75 3d 6d 5d 85 3d 43 c7 53 3c
       -0.031159913 0.060047112 0.0651196 0.012925926
000270 b8 02 da bc 4c 97 ef 3d 3c ed d5 3d 0e 70 e9 bd
       -0.026612625 0.116987795 0.104456395 -0.11398326
000280 84 c5 fd 3d d7 66 59 3d de 51 ee 3d bb d0 eb bc
       0.12391189 0.05307659 0.11636709 -0.028786054
000290 2d 83 30 bd a1 ed 87 3c f9 8d fe bc ab f6 28 bd
       -0.04309385 0.016592802 -0.031073557 -0.041250866
0002a0 24 cd 05 bd 37 01 7c 3d 00 43 22 bd d6 e0 8b 3c
       -0.03266634 0.061524596 -0.039614677 0.017074984
0002b0 7c a7 9b bd a5 e0 94 bd 17 30 b4 3d 46 ce 49 3d
       -0.076003045 -0.0726941 0.08798235 0.049268983
0002c0 ae 8b 9a 3c 22 6b 1f bd 15 23 c9 3c bf 00 fb 3d
       0.018865433 -0.03892053 0.024552861 0.12256002
0002d0 30 f8 90 bb 2b 21 a5 bd b4 65 06 3e 88 f9 52 3c
       -0.0044241175 -0.08062967 0.13124734 0.012876876
0002e0 89 3f 39 3e 4f d4 07 3e 98 53 d0 3d 76 f1 23 bc
       0.18090643 0.13264583 0.10172194 -0.010006299
0002f0 14 1d a6 bd d9 bf b5 3d ba 55 8c 3c 58 58 bc 3c
       -0.08111015 0.08874483 0.017130721 0.022991344
000300 ef 73 1b 3e 74 0e 14 3e 22 d9 bf bd ca 9e 47 3d
       0.15180944 0.14458638 -0.09367587 0.048735417
000310 12 58 7e 3e c3 17 b5 bd a4 c0 c3 3c 0f 04 af 3c
       0.24838284 -0.08842423 0.02389557 0.02136424
000320 44 f8 9f bc 67 eb d1 bc 91 b1 92 3d cd 06 bc 3d
       -0.019527562 -0.025624944 0.07162774 0.09180985
000330 22 db 38 3e e0 1b 0f 3e c7 34 a5 3d e6 59 79 be
       0.18052343 0.13975477 0.08066707 -0.243507
000340 dc ab 53 3d 09 d8 07 3d 9a 5f 3b bd f2 52 cf bc
       0.05167757 0.03316501 -0.04574547 -0.025308106
000350 d0 53 db bd 9e 98 e6 bd ba 77 b9 3a 0c 5d bf 3d
       -0.10709345 -0.11259578 0.0014150061 0.09343919
000360 ab 3a d3 3c e6 48 62 3d 48 ec e1 3d 53 4e e7 3d
       0.025784811 0.055245303 0.11031395 0.11294236
000370 a9 16 ff bc 2a ab 73 3d bd f1 f8 bc ca c0 71 38
       -0.031138735 0.059489407 -0.030388707 5.7638426e-05
000380 e0 bb b9 bd 85 d2 08 3e ed 4b 52 3c 7e 4d 03 bd
       -0.090690374 0.13361557 0.012835485 -0.032056324
000390 51 8e 52 bd 3d 9b d4 3c 5c 48 35 3d 42 d2 d9 3d
       -0.051405255 0.02595293 0.04425846 0.106358066
0003a0 e1 5d c8 3c 02 e7 95 3d 67 ad 54 be a2 22 11 be
       0.024458827 0.07319452 -0.20769273 -0.14173368
0003b0 d4 46 3d 3d 60 47 fc 3d 3b bf d5 3d 67 b1 6e 3d
       0.046210125 0.12318301 0.10436865 0.058274653
0003c0 e3 08 db 3c 45 64 5a 3d 4a fc e2 3d 9f af 06 3e
       0.026737636 0.05331828 0.110832766 0.13152932
0003d0 c2 6b 1f 3d 70 0a 2e bd 3b 7c bc 3c 58 e1 c0 3d
       0.038921125 -0.042490423 0.023008456 0.09417981
0003e0 a0 6c 84 3d cb 9d ba 3d 99 be 90 bb a4 b5 66 3d
       0.06466031 0.09112128 -0.0044172523 0.05632557
0003f0 55 09 4b 3d 95 14 f8 bd 02 81 a9 3d 59 c1 9b 3d
       0.049569447 -0.12113301 0.082765594 0.076052375

bias f4 [128]
000000 9f d6 aa bc 2f 32 40 bb d7 25 2f 3d a6 23 9c 3d
       -0.020854292 -0.0029326787 0.042760696 0.07623987
000010 ee e1 86 3d 8b 7e c6 bc 4b a4 12 3d 22 88 32 3b
       0.065860614 -0.024230262 0.035801213 0.0027241786
000020 f4 a5 68 3c 43 87 91 bc 1b c0 5c bd 9a b6 8b bd
       0.014199723 -0.017764693 -0.053894144 -0.06821938
000030 b8 bc 6f 3d 6c e1 e8 bc 00 de f8 3d 08 3b c2 3c
       0.058529586 -0.028427802 0.12151718 0.023709789
000040 d4 0e ce 3d 60 7e 22 3e fd 26 ab 3c 07 fb 13 3d
       0.10061422 0.1586852 0.020892614 0.03612807
000050 b3 bf d4 bd 84 ce c9 bd ee 48 9b 3c ad e2 bf 3c
       -0.10388126 -0.09853843 0.018955674 0.023423517
000060 5c 51 02 3c 73 05 e8 3d e7 73 cc b9 17 1c 00 3e
       0.007953968 0.11329164 -0.00038996266 0.12510715
000070 3f 2e 85 3c 88 cc 45 3c cf c1 0e 3e fb 97 b3 3c
       0.016257403 0.01207269 0.1394112 0.021923056
000080 6c f6 78 3d e9 18 17 3d 97 38 a9 3c f3 be 65 3b
       0.06078188 0.03688899 0.020656867 0.0035056442
000090 12 1e aa bd 9a 6d cd bd 0f 12 e1 bd f8 69 4e 3c
       -0.08306517 -0.100306705 -0.109897725 0.012598507
0000a0 b6 27 49 bd d4 b7 39 bd 1e 01 2f 3d 81 ec 16 3e
       -0.049110137 -0.045341328 0.042725675 0.14738657
0000b0 3a 53 1b 3d 02 9f 12 3d d0 a9 24 bd 60 21 8c 3d
       0.037921168 0.035796173 -0.04020101 0.06842303
0000c0 52 f1 a2 3d a4 65 3d bc 6c cd 20 3d 2b 06 9b 3d
       0.079561844 -0.011559878 0.039258406 0.07569536
0000d0 7a f7 07 3e 51 57 39 3d ef 51 bd 3d a8 e7 fe 3d
       0.13277999 0.045249287 0.09244143 0.12446529
0000e0 10 18 7c bd 4a 6a f5 3c 56 ab b4 bd b7 96 04 3e
       -0.061546385 0.02995791 -0.08821742 0.12948118
0000f0 ef 0e fc 3d ae a7 5c bd b1 fb 4b bd a1 0b 82 bd
       0.12307536 -0.05387085 -0.04980058 -0.06349874
000100 77 1e 27 bd 2a ca 95 bd 3d 49 c6 3d 1b 1f c3 bd
       -0.040800538 -0.0731395 0.09681938 -0.09527417
000110 47 69 3a 3d cc 2f c2 bc d2 b0 f8 3c 22 85 04 3d
       0.045510557 -0.023704432 0.030357752 0.032353528
000120 00 84 15 3e 4b ac 84 bd 00 55 9f bd fc 76 dc bd
       0.14601135 -0.06478175 -0.07779884 -0.10764882
000130 43 19 ec 3d 1a a7 79 3c d2 eb e9 3d cb ed 48 3c
       0.11528256 0.015237594 0.11421932 0.0122637255
000140 80 d3 cd 3d d8 5f 01 3d 44 03 a0 3c dd b0 16 3d
       0.10050106 0.031585544 0.019532807 0.036789764
000150 6e f4 e1 3c 26 3d d3 3c 50 91 c8 bc bf 44 17 bd
       0.027582373 0.025785994 -0.024483353 -0.036930796
000160 68 6e 75 bb 00 b8 a3 3c 90 4e bb bd 41 c3 e6 3d
       -0.003744984 0.019985199 -0.09145844 0.112677105
000170 5c df d1 3c c3 07 ae 3d f7 ca 28 bc 8d 06 80 bd
       0.025619201 0.08497574 -0.010302297 -0.062512495
000180 6b bd 6a 3c a3 ed a2 bb 18 27 49 3d 0e 05 04 3b
       0.014327387 -0.004972176 0.04910955 0.0020144614
000190 de 28 54 3d 80 9f c7 3c 6f a3 8d 3c c3 41 bf 3d
       0.051796786 0.024368048 0.017289845 0.09338715
0001a0 8a f3 2e bd 60 da 5a 3d cc 23 8d 3d 59 ff 0c 3e
       -0.042712726 0.053430915 0.06891593 0.13769282
0001b0 91 f9 3a 3c b5 e5 09 3d 70 a1 14 3e 28 50 4b bb
       0.01141204 0.03366633 0.14514709 -0.0031023119
0001c0 82 c7 18 3d 18 8a a4 bd 62 cf df 3d db 21 1e 3e
       0.03729964 -0.08034152 0.10928227 0.15442602
0001d0 6d b8 44 bc d2 83 ab 3c 2c 7a 0f bc 17 2e e2 bc
       -0.012006861 0.02093688 -0.008757155 -0.027609868
0001e0 4c 17 df 3d 54 88 0d 3d 01 99 b5 3c a6 78 a0 bd
       0.108931154 0.03455384 0.022167685 -0.07835512
0001f0 9d 3b 88 3d 12 f6 8c 3d ea 97 35 3d ed c8 ca 3b
       0.06651995 0.06882872 0.04433433 0.006188503

weight f4 [128, 128]
000000 44 d1 aa 3d 06 79 de 3d f8 8f 5a 3d eb ed 1d be
       0.083406955 0.10862927 0.053359956 -0.1542279
000010 5d 29 55 be c6 b0 23 be bc e4 fa 3d 5b 05 08 3c
       -0.2081656 -0.15985402 0.12250659 0.008302058
000020 39 bd e5 3d c7 c2 0d 3e b0 08 19 3e 8c 10 e0 3d
       0.11217732 0.13843833 0.1494472 0.10940656
000030 fa 47 db bd e9 b6 cf 3c 21 a8 48 be 62 8a 63 3e
       -0.10707088 0.025355773 -0.19595386 0.22220758
000040 f5 f1 22 be 41 d0 10 be 1e 65 1c 3c 13 39 3e 3d
       -0.15912612 -0.14141943 0.009545593 0.04644115
000050 48 7a 15 3e 44 b7 8c 3d 03 77 4e 3e 38 b4 6f 3d
       0.14597428 0.06870893 0.20162587 0.05852148
000060 d6 ec 3b be c1 5f 17 be 93 14 12 be 7e 2a 6d be
       -0.18352064 -0.14782621 -0.14265661 -0.2316074
000070 15 3e 0b 3e bf 88 df bd 38 b9 32 be b7 c3 ea 3d
       0.13597901 -0.10914754 -0.17453468 0.11463111
000080 28 7b c9 bd 60 31 37 3e fb ef 51 be 87 61 62 be
       -0.09837943 0.17889929 -0.20501702 -0.22107516
000090 c6 9f f5 3d f7 8a 1d 3d 0f 46 75 3d 2f 97 a0 3d
       0.11993365 0.038462605 0.059881266 0.07841336
0000a0 d4 9a 0c 3d 84 ff 2b 3e ec 89 2d be d0 3a 42 be
       0.034327343 0.1679669 -0.16947144 -0.18967748
0000b0 01 de a3 3d 5d 00 36 be c0 7b 6f 3e 2a cb 6e be
       0.08001328 -0.17773576 0.2338705 -0.23319688
0000c0 0a bd 1b be 21 0a 44 3e da a4 6e 3c 08 d3 05 be
       -0.15208831 0.19144489 0.014565671 -0.13068783
0000d0 42 64 2a be 0a c5 11 be a4 2d 58 be 76 60 74 be
       -0.16639808 -0.1423532 -0.2111116 -0.23864922
0000e0 8b 32 42 3e ca 96 ea 3d e8 6c d2 3c 23 55 a2 bd
       0.18964593 0.11454542 0.025686696 -0.07926395
0000f0 4b 55 fb bd 3e 1d fd 3d 07 76 92 3d 87 ac 8e bb
       -0.12272128 0.12359093 0.07151418 -0.004354063
000100 eb f8 22 3e 0d 99 0c 3e 6d da 2e be 9c c8 bb 3c
       0.15915267 0.13730259 -0.1707551 0.022922806
000110 0a 28 44 bc 3b ea 29 3e d8 22 84 bd 5f b8 4e be
       -0.011972437 0.16593258 -0.064519584 -0.2018752
000120 25 d8 e1 bd 58 56 9d 3d 02 f2 20 3e 83 f5 75 bc
       -0.110275544 0.076824844 0.15717319 -0.015012148
000130 e3 18 24 be 00 27 f4 3d e3 28 99 bd ca 1e 3d be
       -0.16025119 0.11921501 -0.07478502 -0.18468776
000140 42 9e ce bd d7 9c 5e be 81 3e 09 3d ed 09 d1 3d
       -0.10088779 -0.21739517 0.033506874 0.10206971
000150 eb 46 81 3d 30 9f 4c be 44 77 22 3e fc 7a 41 3d
       0.06312355 -0.199826 0.15865809 0.047236428
000160 ee c7 d4 3d 1b 86 16 be 7f 2b e0 3d da df 02 be
       0.10389696 -0.14699595 0.10945796 -0.12780705
000170 f4 c3 ac bd 44 ee ab bd 14 d0 02 3e 6d 5d a4 3d
       -0.084358126 -0.08395055 0.12774688 0.08025632
000180 5d 95 37 3c 64 c5 65 be 3d be 0f 3e a3 9f 76 3d
       0.011205045 -0.2243858 0.14037414 0.060210835
000190 9d 6e 04 3e 95 21 e6 3d a8 ba cb 3c ae 6d 06 be
       0.1293282 0.11236874 0.024869278 -0.13127777
0001a0 1a 72 00 3e 02 99 46 be c7 59 20 be e5 ee 6a bd
       0.12543526 -0.19394305 -0.15659247 -0.057356734
0001b0 b0 51 99 3d e8 b7 7f bd 06 cf 84 be 9e da 30 be
       0.07486284 -0.062431246 -0.25939196 -0.17270896
0001c0 2a 4d e1 bd c3 65 4b 3e 6f e4 33 be 2b 72 dc bd
       -0.11001046 0.19863038 -0.17567609 -0.10763963
0001d0 40 1b 14 3e 6a 48 fd bc 34 7e 59 3e 10 11 b7 3d
       0.1446352 -0.030918319 0.21239549 0.08938801
0001e0 7e 73 13 be 8e f8 e9 3d 3d e5 e5 bd 35 5f 01 3d
       -0.14399526 0.11424361 -0.11225364 0.031584937
0001f0 68 d3 c3 bd 5a 27 87 bd 21 57 13 3e 81 25 12 be
       -0.09561807 -0.065993026 0.14388706 -0.14272119
000200 a3 f9 f6 3c f8 9a 86 bd f2 32 51 bd 79 bb 59 3c
       0.030148333 -0.06572527 -0.051073976 0.013289326
000210 67 14 a7 bd cc 7f dd bd b2 e4 56 3d 3a 9e 73 bb
       -0.08158188 -0.10815391 0.052464195 -0.0037173168
000220 f1 1a 99 3a a4 a8 b5 bc 55 42 01 bb ee 09 27 bd
       0.0011681003 -0.02217514 -0.0019723375 -0.040780954
000230 95 43 3d 3d e2 9e 43 bd 66 5e d7 bc e5 90 8e 3c
       0.04620703 -0.047758944 -0.02629013 0.017403075
000240 34 b0 13 bc e0 8a 0f 3d f9 48 0c bc f9 11 b9 bd
       -0.009014178 0.03504455 -0.00856232 -0.09036631
000250 26 54 b2 bc 3a 95 4a 3c 71 28 c9 3c c9 0c 13 bc
       -0.02176864 0.01236468 0.024555417 -0.008975216
000260 48 da 02 be ea 0e 96 bd 46 34 1b 3c 06 1e 1a bd
       -0.1277858 -0.073270634 0.009472912 -0.03762629
000270 6b aa c3 3b de 6f 72 3d 7d 7a 3f 3c f8 43 e0 bc
       0.005971243 0.059188716 0.011686918 -0.02737616
000280 2b e9 d2 bd dd be ad bc c3 04 a3 bd 6c 29 af bc
       -0.102983795 -0.021209175 -0.079598926 -0.021382056
000290 81 12 93 bd 5e 8e 4b bd 32 78 53 bd f2 48 88 bd
       -0.07181264 -0.04969632 -0.0516283 -0.06654538
0002a0 46 68 2d bd eb ef a1 bd 28 01 b0 3d a1 f9 c3 3c
       -0.04233577 -0.07907089 0.085939705 0.023922743
0002b0 2b 1a 88 bd c6 c6 d2 bd a1 39 35 3d 2b 3d 9c bd
       -0.06645616 -0.10291819 0.044244412 -0.07628854
0002c0 61 83 d8 bd 83 31 9f 3d 28 a1 6c bc f2 07 a5 bd
       -0.105719335 0.077731155 -0.0144427195 -0.08058156
0002d0 18 2d 70 3d 88 60 47 bd 66 7b bd bd 0d 31 43 3c
       0.058636755 -0.048676044 -0.09252052 0.01191355
0002e0 37 85 77 3d 7a 1f 96 bd 31 c1 2c bc a7 32 29 3c
       0.060429778 -0.073302224 -0.010544107 0.010327018
0002f0 9b a4 de 3d 6e ea 0e 3d 62 27 87 bd ca 0f 74 bc
       0.1087124 0.03489154 -0.065993086 -0.0148963425
000300 1e 89 e0 bc 02 46 98 3b 68 9f ac bd af 05 22 3d
       -0.027409133 0.0046470175 -0.08428842 0.0395562
000310 c7 18 2b bd c3 12 8e bd 0b a8 17 bd 53 23 44 3d
       -0.041771676 -0.06937172 -0.037025493 0.04788525
000320 6b fd 2f bd cd 47 99 bd 4a 6b 84 bd 09 dc 02 bd
       -0.042966288 -0.07484398 -0.06465776 -0.031948123
000330 10 4f 1e ba d5 b0 aa bc d0 9a 67 3d 9b 05 9b bd
       -0.0006039003 -0.020836273 0.056544125 -0.075694285
000340 cf 0f 12 bd c7 7e 8f bd 4a 85 91 3d b3 1e b5 3d
       -0.035659607 -0.07006603 0.07105501 0.08843746
000350 0e c6 2d bd 1b 78 86 3c 64 c5 a7 bb e2 17 9f 3d
       -0.042425208 0.016414693 -0.0051199663 0.07768227
000360 0f 61 5f bd 4f 09 93 3d e9 16 f3 3c 17 6a bf b9
       -0.05453592 0.0717951 0.02967401 -0.00036509402
000370 25 b9 b7 bd 5c 38 51 3d f3 64 4a 3d 26 e3 36 3d
       -0.089708604 0.05107914 0.04941268 0.04465022
000380 de 95 d5 3b b4 63 24 3d c6 50 e9 3c c3 52 3f 3d
       0.0065181097 0.040134147 0.028480899 0.046709787
000390 e3 9a 30 bd f5 64 2d 3c dd ec 08 bd 71 f7 8a 3c
       -0.04311646 0.010583152 -0.033429015 0.016963692
0003a0 1c 41 c7 3d bd 5e 89 3d c9 e3 ea bc 95 49 3d 3d
       0.097292155 0.06707523 -0.02867307 0.04621275
0003b0 85 aa 26 bd 91 1f ad bc 26 d1 cc bc 70 ff 46 bd
       -0.040689964 -0.021133216 -0.025002073 -0.048583448
0003c0 2b bf b6 bd a9 22 07 bb f2 48 92 3d ac 1d 54 bc
       -0.08923181 -0.0020620024 0.071428195 -0.012946527
0003d0 73 ce 21 bd f4 f0 9f bd 18 03 73 bd 57 fd d9 3b
       -0.039503526 -0.0780963 -0.059329122 0.006652515
0003e0 ff c4 b0 bd 16 f2 f6 bc a5 99 03 bc 30 c4 51 bd
       -0.08631324 -0.030144732 -0.008032237 -0.05121249
0003f0 80 c8 07 be 1a f8 9b bd 08 9e 96 3d f8 0f b6 bd
       -0.13260078 -0.07615681 0.07354361 -0.088897645

bias f4 [128]
000000 d3 0b b7 bd ea 6e ae 3d 88 d1 0c bd 60 9c 6b bc
       -0.08937802 0.08517249 -0.034379512 -0.014380544
000010 10 17 fd bd 7c 3b 1d 3c 6d 7b 0c 3c 15 2c ec bd
       -0.123579144 0.009596702 0.008574349 -0.115318455
000020 46 fe fa bd 37 70 96 3c 40 d4 bd 3c a5 61 92 3d
       -0.1225553 0.018364055 0.023172498 0.071475305
000030 06 4f cb 3d 38 37 81 bd c7 ee a4 3d c7 db 36 3d
       0.09927182 -0.0630936 0.08053356 0.04464319
000040 f8 ec ea bc a1 4d ff bd c3 8c 10 3d 84 7f c5 3d
       -0.028677449 -0.124659784 0.03529049 0.09643462
000050 7b 3a d8 bd 0f 50 95 bd 00 a1 db 3c 37 5e 1f 3c
       -0.10558029 -0.072906606 0.02681017 0.009727052
000060 39 c1 d5 3d 1b 7a 31 3d f7 8a b0 3d 70 7a ee 3c
       0.10437245 0.04332934 0.086202554 0.029111117
000070 c9 b4 71 3c 3b 96 53 3d b1 9d 77 bd 94 b3 c2 bc
       0.014752575 0.051656943 -0.06045312 -0.02376727
000080 3a ec 01 be d2 d9 0f bb 32 cc d2 bd d2 79 07 3d
       -0.1268777 -0.00219499 -0.102928534 0.03307516
000090 b0 96 34 3d 29 c9 bd bc 9e 40 3e 3d 50 c2 e2 bb
       0.04408902 -0.02316721 0.046448343 -0.0069201365
0000a0 dd d3 24 bd 66 68 40 3c 3f 08 85 bd be 40 76 bd
       -0.04024111 0.0117436405 -0.064957134 -0.060120337
0000b0 56 a9 80 bd 58 ab 07 3d 86 41 24 bd ef 7f e2 3b
       -0.06282298 0.03312239 -0.04010155 0.0069122235
0000c0 97 55 64 bb e5 c0 a4 bc ed 6a 1f bd 70 d2 bd 3d
       -0.0034841055 -0.02011151 -0.03892033 0.092686534
0000d0 23 62 56 3d 92 9e 44 3d 45 99 cd 3d 46 cc ab bd
       0.052339684 0.048002787 0.100389995 -0.083885714
0000e0 dd 42 4e bc 16 dc ed bd 96 f6 93 bd 3a 1d 20 bd
       -0.012589184 -0.11614244 -0.07224767 -0.039090373
0000f0 0b df c8 bd ad 96 4a 3d 34 84 b8 bc 75 83 72 3c
       -0.09808167 0.049460102 -0.022523977 0.01480185
000100 1d fa ef 3c ed 64 bf bd f6 6d 23 3c 13 73 40 bd
       0.029294068 -0.09345422 0.009974947 -0.046984743
000110 4a e8 20 bd c7 1f 9f bd 86 55 e2 bd 10 63 95 3d
       -0.039284028 -0.07769733 -0.110514686 0.07294285
000120 c1 a5 88 bd 1d 94 dd 3c b7 8c c5 3c 25 be 0d 3d
       -0.0667224 0.027048165 0.02411495 0.034605164
000130 ad dc f9 bc 9a 47 19 bd 81 25 1f 3c e0 33 09 bd
       -0.030500734 -0.0374218 0.0097135315 -0.033496737
000140 4e 3c 01 be a1 2e 1c bd fe 91 fa bd db 7c be bc
       -0.1262066 -0.038130406 -0.12234877 -0.023252895
000150 44 51 8b ba 15 66 43 bc be 0d 50 3d a6 26 b5 bd
       -0.0010629077 -0.011926194 0.050794356 -0.08845262
000160 b9 ce f0 3d 9a 2a 8f bc 47 f8 ed bd ae 2a 61 3d
       0.11758179 -0.017476369 -0.11619621 0.054972343
000170 e8 9e 8e bd 73 f8 aa bd b0 c2 ba bc f2 70 92 bd
       -0.06963903 -0.08348169 -0.022797912 -0.07150449
000180 05 68 90 bd f4 e2 43 bc e2 1a ba 3d 29 21 4d bb
       -0.0705109 -0.011955965 0.09087159 -0.0031300283
000190 67 e3 de bd e1 37 35 bd 5d 7b 15 bd a8 a4 71 bd
       -0.10883217 -0.044242743 -0.0364946 -0.05899492
0001a0 f0 44 5d 3c 65 53 ff 3c f6 89 73 3d 99 7e ae bd
       0.0135052055 0.031167695 0.05945774 -0.0852024
0001b0 61 b7 29 3b 0a e3 42 bd 5a 7b 7c bd c3 59 9c bc
       0.0025896656 -0.047579803 -0.061641075 -0.01908577
0001c0 9e a3 06 bd fd 3a fa bc cf 61 9b 3d 12 2a 21 3a
       -0.03287088 -0.030545706 0.07587015 0.00061479316
0001d0 e7 87 05 bc d7 d4 ed bd 35 3c 12 3d a6 40 08 3d
       -0.008150077 -0.116128616 0.03570195 0.03326478
0001e0 8b 6d 32 3d 99 21 f7 bc 45 93 d4 3d b5 05 c2 bd
       0.0435615 -0.030167388 0.10379652 -0.09473745
0001f0 1a c5 c1 bd ec 09 b5 bc 09 f9 32 3d b7 7e fa bd
       -0.09461422 -0.022099458 0.04369453 -0.122312

weight f4 [1, 128]
000000 01 1d 19 3e 20 ba c0 bc 23 9a cc 3d 34 22 a2 3d
       0.1495247 -0.023526251 0.09990337 0.0791668
000010 cd 1f 73 3e 8f 73 89 3e 13 26 35 bd ad 21 f2 3d
       0.237426 0.26845977 -0.044225764 0.118228294
000020 41 91 e3 3d 54 39 67 3a 8b d4 4c 3d 30 e1 22 bd
       0.11111689 0.0008820493 0.050007384 -0.039765537
000030 56 c6 8f bc 45 83 8c 3d cd d3 c1 bc d0 62 a6 3d
       -0.017550629 0.06860975 -0.023660565 0.08124316
000040 fa 3c 93 3d ec 11 78 3e c7 7a 66 bd 2b 67 01 39
       0.07189365 0.24225587 -0.056269433 0.00012340832
000050 42 cb 84 3e 7c 56 9b bc 21 a2 8b 3d 8c e7 56 bd
       0.25936323 -0.018962137 0.06818033 -0.052466914
000060 17 0a db bc f5 8b 95 3d 4d bd a4 bc 39 10 ca ba
       -0.02673821 0.07302085 -0.020109797 -0.0015416212
000070 f5 68 d8 3d f9 eb d3 3d 63 82 03 3e 50 86 0b 36
       0.10566894 0.103477426 0.12842707 2.0790794e-06
000080 cf 99 3a 3e 69 55 ba 3d b0 e5 17 3e 3c 3d 73 3d
       0.18222736 0.09098322 0.14833713 0.05938457
000090 42 1d eb bc 9b 2b 67 bd 1f 4b c3 3d d4 82 9e 39
       -0.028700475 -0.05643807 0.095358126 0.00030233583
0000a0 41 50 03 3e 13 15 85 bd 02 15 28 bd 72 98 87 bd
       0.12823583 -0.0649816 -0.04103566 -0.066208735
0000b0 e4 0c 1e 3e 0a 56 23 bd ac 2a 79 bd 64 66 b9 3d
       0.15434605 -0.039876975 -0.06083171 0.090527326
0000c0 57 91 6a bc 48 4d 4e bd 56 2d d6 b9 71 69 59 bd
       -0.014316878 -0.05036667 -0.0004085104 -0.053079072
0000d0 32 0e d2 3d 80 1a e7 3d 7b 2d d9 bc 60 53 ec 3d
       0.10256614 0.11284351 -0.026510945 0.1153934
0000e0 cd d7 ae 3d 60 58 5e 3d 47 d6 17 3e 4a e3 bb 3d
       0.085372545 0.0542835 0.14827834 0.09174211
0000f0 16 89 23 3e 15 a5 19 3d 91 59 16 bc 63 7a a4 bd
       0.15970263 0.03751095 -0.009176628 -0.08031156
000100 27 d2 5a bd be 94 47 3e 4e 67 53 ba 92 05 29 3e
       -0.053423073 0.19490334 -0.0008064405 0.16506031
000110 8e 5d 25 3e d0 ad 93 3c 7e 95 0d 3e 29 97 89 bd
       0.1614897 0.018027216 0.13826558 -0.06718285
000120 6c 96 1b 3e 28 5e 13 bd 8c b3 0d bd 8b 58 07 bd
       0.151941 -0.035978466 -0.034595057 -0.033043426
000130 45 5e b7 3e 23 fe 32 3d ba c4 b7 3d 49 71 bd 3c
       0.3581411 0.043699395 0.089730695 0.023125308
000140 60 ac 48 3e 82 b7 27 3d a7 55 32 3e ef 20 fa 3c
       0.19597006 0.04094649 0.17415486 0.030533282
000150 ec c3 45 3d a4 dc a0 3d 5f 91 65 3d 1e 1b 61 3e
       0.04828255 0.07854584 0.05604684 0.21983
000160 88 ec d5 bd d4 8a 88 ba 81 8b 25 3e 3d 7a f9 3d
       -0.104455054 -0.001041735 0.16166498 0.12181518
000170 d8 58 96 3d 97 2a 50 bd 3d a3 b0 3c 29 fd 33 bd
       0.07341164 -0.050821867 0.021562213 -0.043942604
000180 ca e7 3a 3e 0e b4 fa 3d 66 db a6 bd aa 18 3e 3d
       0.18252483 0.12241374 -0.08147316 0.04641024
000190 e0 e1 c3 3d 16 3c 1d 3e 1a 13 f3 3d ab 02 1f 3e
       0.095645666 0.15354952 0.11868878 0.15528361
0001a0 ea ad 3b ba 39 e9 bb bc 1c 2c a6 3d 9b d0 7e 3c
       -0.0007159399 -0.022938358 0.08113882 0.015552665
0001b0 3f 16 40 3b 32 2c 33 3d 4e 5d 04 3e 02 82 04 bd
       0.0029310135 0.04374332 0.12926218 -0.032350548
0001c0 c9 42 d8 3d fd d8 8a bd ab fb ab bd 25 5a e3 3d
       0.10559613 -0.067796685 -0.08397611 0.11101178
0001d0 6a 5b aa bd 1f 92 a7 3d 53 4d 91 bd 09 fe 35 bd
       -0.08318217 0.08182167 -0.070948265 -0.04443172
0001e0 c0 ac 33 bd 9c b2 d9 bc d3 9e 01 bd 6c 78 ad 3d
       -0.04386592 -0.026574425 -0.031645607 0.08470234
0001f0 00 57 45 3e 40 5d 07 3d 28 aa a4 3d 12 d0 5d 3e
       0.19271469 0.033047915 0.08040267 0.21661404
