tag_00_Dec2023_simpleControlTurbulence/agentData/pretrained_actor.pt (torch, 142479 bytes, 8 tensors)

weight f4 [128, 9]
000000 07 cd b1 bc ff ca d3 be 9d 48 8f bc 8a 7b cb bc
       -0.02170421 -0.4136581 -0.01749068 -0.024839181
000010 d5 c4 4e 3f 98 62 10 bf 5e ca 09 bf 4c 96 f6 bb
       0.8076909 -0.5640044 -0.5382441 -0.007525241
000020 9e 79 26 bd 9c bd 3e bd 87 3a cd 3e eb 95 8d 3d
       -0.040643327 -0.046567544 0.40083715 0.0691336
000030 aa 1d 3c 3c f3 01 5e 3d a6 b3 37 3e cd 6b 2d be
       0.011481682 0.054201078 0.17939624 -0.16935654
000040 e7 43 7d 3d b9 e1 6a 3e 84 51 28 be c0 42 65 3e
       0.061832335 0.22937669 -0.16437346 0.22388744
000050 5e 8b 0f 3d 40 0d 84 3e 3c 28 5a bf df e0 1d bd
       0.03504502 0.2579136 -0.8521764 -0.038544532
000060 5a e5 24 be fd 7e a8 bd e0 2a 38 3e 39 a4 9f bc
       -0.16103116 -0.08227346 0.17985106 -0.019487487
000070 ce 38 51 be 6b a8 8c be cd 4b 9b be 5f a2 09 3e
       -0.20431826 -0.27472243 -0.3033127 0.13440846
000080 63 ce 29 bf b5 fd 30 3c 51 00 c0 be fb 16 84 be
       -0.66330546 0.010802676 -0.3750024 -0.25798783
000090 ec 4b c3 3d 53 b4 9b 3e 19 ff b1 be c4 58 c3 be
       0.09535965 0.30411014 -0.34764937 -0.3815366
0000a0 6c 5f 1f 3f fd c6 50 3f 48 87 c4 bd a7 d1 29 3e
       0.6225498 0.8155363 -0.09596115 0.16583882
0000b0 19 53 53 be 6c 84 91 3e db d7 fb 3d db 70 91 be
       -0.20637168 0.28421342 0.122970305 -0.28406414
0000c0 49 1e 98 be cd d1 84 3d a0 ab 85 be b7 b0 ea bd
       -0.29710606 0.06485329 -0.26107502 -0.11459487
0000d0 a8 4b 20 be 22 79 2e be d5 86 b0 3e 7a 05 e9 3e
       -0.1565386 -0.17038396 0.3447787 0.4551199
0000e0 94 a2 be 3d 28 e1 f4 3d fa 62 36 3f 2e d0 e7 3e
       0.09308353 0.11957008 0.71244776 0.45276016
0000f0 23 78 7d 3e 9a 83 38 bd 4b c5 09 be e1 d4 60 be
       0.2475286 -0.04504738 -0.13454168 -0.21956207
000100 02 8c 9a 3d 0a 79 67 bd 7d 9c b6 3d d9 13 0e bd
       0.075462356 -0.056511916 0.089165665 -0.034686897
000110 a0 50 10 bf 03 77 f7 3d d2 93 a7 be ad d6 e6 3d
       -0.56373024 0.120832466 -0.32729965 0.11271415
000120 70 62 0f bf 8e f3 a2 3e 50 fb ad bd 7b cc 15 3c
       -0.5600958 0.31826442 -0.084952 0.00914299
000130 b2 bd a3 3e 62 44 c1 3d c1 a6 15 bd 80 48 6a bd
       0.31980664 0.09436871 -0.036535982 -0.057198048
000140 08 e6 07 3e 28 40 c0 be cd 3b 9d 3e 3d 5d b5 3e
       0.13271344 -0.37548947 0.30709687 0.35422698
000150 84 da 8a bd 3b 61 41 bf ca fd 81 be 42 f0 57 be
       -0.0677996 -0.75538987 -0.25388938 -0.21087745
000160 10 b0 81 be 28 c7 c9 bd f7 ca c8 bd 03 f6 c2 be
       -0.25329638 -0.09852439 -0.098043375 -0.38078317
000170 5d 12 7f be 23 e8 90 be 52 18 a9 be 39 25 3a be
       -0.24909349 -0.28302106 -0.33026367 -0.18178262
000180 3f 94 48 bd da a3 d7 3a 2c 2f 44 be ea 18 14 3e
       -0.048969503 0.001645203 -0.1915862 0.14462629
000190 e3 0a c8 be 09 11 5a 3e 7b 35 91 3d b3 ff 8c 3e
       -0.39070806 0.21295561 0.07090279 0.27538833
0001a0 cf c3 5f 3f d5 8f 8b 3d b5 12 0e bf 89 22 5e bd
       0.87408155 0.06814543 -0.55497295 -0.054232154
0001b0 32 9f 8c 3e 24 3b 99 bd 3d 01 1c 3e 1c 5e 20 be
       0.27465206 -0.07481983 0.15234847 -0.156609
0001c0 8f 6f 8a bf f9 01 3a 3d e2 f6 0e 3f 89 0b a9 3d
       -1.0815295 0.045412038 0.55845463 0.08254153
0001d0 bb be e7 bd 04 22 62 be c4 a1 cf be 42 56 dd bd
       -0.11315676 -0.22083288 -0.40553105 -0.10807468
0001e0 c9 a8 79 be 67 ff 9b be 04 58 3b 3f 6d 9f e0 bd
       -0.24380793 -0.30468294 0.73181176 -0.10967908
0001f0 f5 9c 34 be 87 e1 1a 3e f3 b7 43 3e b0 a2 37 be
       -0.17638 0.15125094 0.1911314 -0.17933154
000200 c5 85 07 3f 4c 44 16 be 4b 31 af 3e 64 2a db be
       0.5293849 -0.1467449 0.34217295 -0.4280578
000210 98 9a 07 3d 88 80 5e be 3a 21 49 3f ee 94 3c bd
       0.033106416 -0.21728718 0.78566325 -0.046040468
000220 a6 9c 7a 3e 33 ec 13 be 01 8a 55 bc a8 8b 1f 3f
       0.24473819 -0.14445572 -0.013033391 0.62322474
000230 ad 1c 26 3f 6c bf e7 3e 5c e1 0a 3e 40 de 8a 3d
       0.64887506 0.4526323 0.1356253 0.06780672
000240 66 4f 85 3e 97 58 e6 bd 09 0e a5 bc 91 ed ff bd
       0.2603714 -0.11247366 -0.020148294 -0.12496484
000250 2a 0b 1f 3f 2f 1c 15 bf 14 2d af 3d fe b6 e6 3e
       0.6212641 -0.5824613 0.0855352 0.45061487
000260 ac 5c 84 bd 04 c3 fe 3e 9b 7a a5 3e 78 15 ae be
       -0.06462988 0.4975816 0.32320103 -0.34000754
000270 21 d7 53 be 3b d6 26 be 18 af c1 3e 5e c7 f3 bd
       -0.20687534 -0.1629266 0.37828898 -0.11903261
000280 38 4a cf 3d 2f 54 83 bd fb f2 80 3d bd 86 a6 3d
       0.10121578 -0.06412541 0.06296345 0.08131168
000290 f1 22 00 bf 6f 8f fc 3e ea d1 22 be e2 7b 1e bf
       -0.50053316 0.4932818 -0.15900388 -0.6190778
0002a0 21 3a fd bd a2 f8 82 3c 6f 9c 0e bf 15 f9 b2 bb
       -0.12364603 0.015987698 -0.5570745 -0.005461822
0002b0 eb 91 3e 3d 90 1c 2d be 20 4a a9 be 06 12 cc 3c
       0.046525877 -0.16905427 -0.33064365 0.024910938
0002c0 ce cd ae 3d ca 34 88 bc bf b0 3b 3d db 0a 42 be
       0.08535348 -0.016626734 0.045822855 -0.18949454
0002d0 03 fe cf be 64 1a b4 3e 75 8a 9d bd 84 b2 e4 bb
       -0.40623483 0.35176384 -0.07692424 -0.0069792885
0002e0 42 c9 66 bf 1e 68 35 3e b9 68 96 bd a0 76 ba bd
       -0.90150845 0.17715499 -0.07344193 -0.09104657
0002f0 06 8a e4 bc cc 95 0a be d6 96 47 3e 5b 0e 1b bf
       -0.027897846 -0.13533705 0.19491133 -0.6056878
000300 6f d6 d4 3e c1 e6 ff bd 4d 5a 71 3e ff f3 9e bc
       0.4156985 -0.12495185 0.23569603 -0.019403456
000310 6c 13 ca bb 4f e3 f3 be 21 32 8d be ab 73 05 be
       -0.006166866 -0.4763436 -0.27577308 -0.13032405
000320 c4 24 44 bc 68 7c 1c 3d 48 02 51 3d 8d e2 02 40
       -0.011971656 0.03820458 0.051027566 2.0450776
000330 47 84 aa 3c 8a 9f 0a be 64 cd 85 3d 31 fb 83 3e
       0.020815028 -0.13537422 0.06533316 0.2577758
000340 b0 42 98 3e 09 25 aa 3d ca ab 76 3e ed 90 ed 3d
       0.2973838 0.08307845 0.2408897 0.11599908
000350 25 97 93 3e 6c dc e1 3b 85 94 b0 bd 3b 5a 2c bf
       0.28826252 0.0068927314 -0.08622078 -0.6732518
000360 03 1e 1e be 38 a2 44 3e e7 2e 18 be 55 26 bb 3b
       -0.15441136 0.19202507 -0.14861642 0.0057113566
000370 87 c3 94 3d 91 51 a0 bd d3 04 fd 3c ed 58 94 bd
       0.072638564 -0.078280576 0.03088609 -0.07243524
000380 54 1e eb 3c 60 c6 da 3d cd 09 b0 bd 89 c9 c8 bd
       0.028700985 0.10682368 -0.08595619 -0.09804065
000390 2b 12 db 3e 3e 25 16 bf 47 a8 a2 3f 2e ec fb 3c
       0.427873 -0.5865058 1.2707604 0.030752268
0003a0 25 e7 b9 bd ed 13 31 3e d6 a2 c5 3e 40 71 0f 3e
       -0.090772904 0.17292757 0.38600796 0.14008045
0003b0 18 1a 23 be d5 3e 91 be 12 e5 35 3b 79 02 1f 3f
       -0.15927923 -0.2836825 0.0027754945 0.6211315
0003c0 ac 47 9c 3e 0e 3f 8a 3e 38 94 4c be 46 2e 57 3e
       0.3052343 0.27001232 -0.19978416 0.21013746
0003d0 a3 59 6e be eb 2a 56 be 71 20 bb bc b6 02 f5 3e
       -0.23276381 -0.2091481 -0.022842618 0.4785363
0003e0 e7 80 7f 3e b1 68 7d 3e 3b 02 14 3e 93 ad 32 bd
       0.24951516 0.24746968 0.14453976 -0.043622565
0003f0 7d 6a a2 be e2 69 47 be 5a bd 81 bd 60 dc 2d be
       -0.3172187 -0.19473985 -0.06334944 -0.16978598

bias f4 [128]
000000 09 5f 98 be 8c 02 6f bd 1e f4 6e bd 92 97 12 be
       -0.29760006 -0.05835204 -0.058338277 -0.14315632
000010 75 21 e1 3b 48 7c 08 3e c9 1f 58 3e db a3 5b be
       0.0068704435 0.1332866 0.21105875 -0.21449225
000020 51 d4 b5 be 55 7a 64 3e 3b a5 5f bc e6 c8 74 be
       -0.35513547 0.22312291 -0.013650234 -0.23904762
000030 ad 18 e4 bd 37 79 be be ad 9d 9e be 7c bf 67 be
       -0.11137519 -0.37201855 -0.30979672 -0.22631639
000040 38 ba c4 bd 36 ae 3a 3e 01 f9 de be 77 05 e7 bc
       -0.09605831 0.18230519 -0.4354935 -0.028200848
000050 58 7f 30 be 25 f3 d0 be 0a aa 6a bd 7b aa c2 be
       -0.17236078 -0.40810505 -0.057291068 -0.3802069
000060 40 30 c5 bd 19 e6 a7 3d 4a 9a c6 3c 07 3b d7 bc
       -0.096283436 0.081981845 0.024243493 -0.026273264
000070 b8 f4 a5 bd 6e 04 d6 3d 45 76 bb be 59 11 30 be
       -0.08103317 0.10450064 -0.3661367 -0.17194118
000080 1d 31 7d 3e ea 41 9d be 8f c3 ac be 12 0c b7 3b
       0.24725766 -0.3071435 -0.3374295 0.0055861557
000090 a0 c2 fc 3d 52 34 1b be ad 25 6e 3e 9a 09 d5 bc
       0.12341809 -0.15156677 0.2325656 -0.026005555
0000a0 35 95 ea 3d 3c ae a3 3d e4 14 47 bd e8 9f 3e be
       0.1145424 0.07992217 -0.048603907 -0.18615687
0000b0 7e 1c a0 bd 1c ba b0 3d cf 55 96 be 1e 64 a8 be
       -0.078179345 0.086292475 -0.29362342 -0.32888883
0000c0 4f 52 88 be 9f 81 20 3e 63 cf 37 3e 28 ff 0e 3e
       -0.26625296 0.15674447 0.17950206 0.13964522
0000d0 6d d1 03 be a3 c6 36 3d 41 3d 94 bc ac 6c 33 be
       -0.12872858 0.04462303 -0.018095614 -0.17521924
0000e0 f3 e4 17 be f8 5c a9 bc 6d 57 27 3e 93 57 ae 3d
       -0.14833431 -0.020674214 0.16341944 0.08512797
0000f0 be 9d 9b 3d e0 f6 b2 3d 79 55 d2 bd 95 f3 96 3d
       0.07598446 0.08738494 -0.10270209 0.07370678
000100 e0 91 67 be 98 17 85 bd 00 df ed 3d 26 29 b4 bd
       -0.2261424 -0.06498641 0.116147995 -0.08796911
000110 79 3f 20 3b 37 3c 3c ba f8 94 2d 3e 5e 35 2d bd
       0.0024451895 -0.00071806036 0.16951358 -0.042287223
000120 fe be 52 bd d8 f2 83 bd c7 c8 ea 3d 8d 3e 7d 3e
       -0.051451676 -0.06442803 0.114640765 0.24730892
000130 a9 c4 bf bc d8 65 8a 3d f8 49 cb bd 61 9f 26 be
       -0.023409205 0.067577064 -0.09926218 -0.16271736
000140 5a 6f ba bd d4 d3 e2 bd 49 ac e0 bd 8d cc 0d be
       -0.0910327 -0.11075559 -0.10970361 -0.13847561
000150 38 eb cf bd 5b 99 57 be 6c cb c6 bb ff 52 e9 3d
       -0.10152286 -0.21054594 -0.0060667302 0.113927834
000160 d0 9a 1b be 75 24 75 bd 17 f6 02 be 77 31 02 3e
       -0.15195775 -0.05984922 -0.12789188 0.12714182
000170 eb 4e 64 3e 67 59 e8 be c7 d1 bc bd 50 2c 02 bc
       0.2229573 -0.4538071 -0.09219699 -0.007945135
000180 b9 5b cf bd e0 78 fb bd d1 5b 19 be cf 5e 3c be
       -0.101249166 -0.122789145 -0.14976431 -0.18395542
000190 4d ef 76 be 35 9e 9e 3d 67 bc 9a be dd 88 bc bd
       -0.24114724 0.07745019 -0.30221865 -0.09205792
0001a0 27 b3 dd be 02 86 c3 be c6 d8 5c 3e 07 ec 9b bd
       -0.43300745 -0.38188177 0.21567068 -0.07613378
0001b0 67 db 6f bd a8 c3 7c be 74 b6 0e bd 3d db be 3d
       -0.058558848 -0.24684012 -0.03484197 0.0931916
0001c0 0a de 0b 3e f0 64 a6 3d b1 eb c8 be f6 89 35 3e
       0.1365892 0.08124721 -0.39242318 0.17728409
0001d0 2d 9e ef bc 59 f4 24 3e a0 5b 91 be 7d af 80 be
       -0.029250229 0.16108836 -0.28390217 -0.25133887
0001e0 97 f3 b8 be 66 f0 4c 3d e6 b0 b3 be 69 58 75 bd
       -0.36123344 0.05003395 -0.350959 -0.059898768
0001f0 72 8a b8 be cf 9f 9e be b2 61 3c be 30 0d 10 be
       -0.36043125 -0.309813 -0.18396643 -0.1406753

weight f4 [128, 128]
000000 59 f6 3c 3c 0d 74 b4 3c a3 61 50 bd 3b 8f f8 bd
       0.011533343 0.022027994 -0.050874364 -0.12136694
000010 62 b9 e2 3d d8 f7 9f bd a4 20 fc 3d ab 78 95 bd
       0.11070515 -0.07810944 0.12310913 -0.07298406
000020 6a b5 cd bd db f4 14 be 7f 91 a9 3d 53 8c f7 bc
       -0.100443676 -0.1454653 0.08279704 -0.030218279
000030 91 3c 0d bd 64 99 eb 3c 5e 11 43 3d d8 97 56 bd
       -0.03448159 0.028759666 0.047623985 -0.052390903
000040 ac 69 af bd cc 26 77 be fd 24 90 3d dd fb b8 bd
       -0.08565077 -0.24135894 0.07038305 -0.09032414
000050 24 bc 87 3d 29 76 8a 3c c9 98 8b bd 78 b8 71 bd
       0.06627682 0.016902046 -0.06816251 -0.059013814
000060 bc f5 31 bd 68 6b aa 3d 70 c4 89 be a7 ac 9f bd
       -0.04344724 0.08321267 -0.26907682 -0.07796603
000070 2f 2c ae bd 8c 68 d7 3d f7 0d 0a be 37 21 b0 3d
       -0.08504521 0.105179876 -0.1348189 0.08600085
000080 ef af d5 3c 11 c2 8d bc f5 f0 98 bd 0d 06 a3 bc
       0.026084868 -0.017304452 -0.07467834 -0.019900346
000090 0f 84 ca bd 99 28 61 3d 86 e9 74 3d f1 b5 28 be
       -0.098884694 0.054970358 0.059793018 -0.16475655
0000a0 93 90 92 bc 56 f1 aa 3c 75 eb db 3c c1 d2 1e 3d
       -0.017891204 0.020867031 0.026845673 0.03877521
0000b0 ed 7a 6a 3d d0 0c 09 3e 2c bf 3d 3d d5 d1 bc bd
       0.057246137 0.13383794 0.046324894 -0.0921971
0000c0 dc 30 fe bc a4 77 b4 3d 3a ab 49 bd a2 bc ee 3c
       -0.031029157 0.08811882 -0.04923556 0.029142682
0000d0 36 a8 ed 3d d6 a5 ef bc 12 e5 85 3d eb 0c af 3c
       0.11604349 -0.029253881 0.06537832 0.021368464
0000e0 2c a5 56 bd 69 bc d2 3c bb e6 0d 3c c2 b5 9b 3d
       -0.052403614 0.025724607 0.008660967 0.07603027
0000f0 2f aa 19 bb 5b b1 87 bd 36 44 02 be 1d 1b 06 be
       -0.0023447385 -0.06625625 -0.12721333 -0.1309628
000100 51 b2 cc 3d 1f 47 d1 bd a8 d5 1d 3d 14 a2 c5 3d
       0.09994949 -0.102186434 0.038533837 0.096500546
000110 b8 ca 83 bc df c6 e7 3d 1f d8 d8 bb 82 39 7e 3d
       -0.016087875 0.113172285 -0.0066175605 0.062066562
000120 1b 6e 5a 3d 69 0b 08 3d 58 b4 07 3d bd e7 22 bd
       0.05332766 0.033214007 0.033130974 -0.039771784
000130 10 c5 0f 3e 08 ee a0 3d 52 f7 ae 3d 22 d8 34 bd
       0.14040017 0.07857901 0.08543266 -0.044151433
000140 88 09 8a 3c 8e c8 b9 bd 68 61 bc 3c 8a 75 1e 3d
       0.016850248 -0.09071456 0.022995666 0.038686313
000150 94 16 1f bc e7 a4 88 3c f4 ce 9e bc df f8 33 bd
       -0.009709973 0.016680194 -0.019385792 -0.043938514
000160 ef 0c 2f 3d 1a eb f6 3b 14 eb 95 3d 28 32 de bd
       0.042736944 0.0075353505 0.07320228 -0.1084941
000170 85 6d 1d be 94 36 f6 bb d7 98 2e be 5b 96 86 bd
       -0.1537381 -0.0075138304 -0.17050491 -0.06571647
000180 21 41 36 bd 30 cd b1 bd 1c 42 69 3d c3 b2 02 3d
       -0.044495706 -0.086817145 0.056947812 0.03190876
000190 88 a4 cc bd 0e 36 11 3d 42 e5 47 be 9e eb 74 3e
       -0.09992319 0.03545194 -0.19521049 0.23918006
0001a0 29 42 88 3d 28 1f 9d 3c e2 1a e4 bd 82 1e 1d 3e
       0.06653244 0.019179896 -0.1113794 0.15343669
0001b0 7a 73 64 3d 1e 0c cf 3d 6a 0f b0 bd ad 9f c6 bc
       0.05577419 0.10109733 -0.0859669 -0.024246061
0001c0 f3 e6 06 3d 80 5e 12 be eb 2f 8f 3d 4b cb 91 bd
       0.032935094 -0.14293861 0.069915615 -0.07118853
0001d0 fb f1 93 3c 2e eb 7c bd db 35 e3 bb de f6 a2 3d
       0.018059721 -0.061747722 -0.0069339103 0.079572424
0001e0 22 55 92 bd 8f 39 ce 3b 14 a2 1a 3d f6 79 81 bc
       -0.07145144 0.0062934826 0.037752226 -0.015805226
0001f0 cb f9 fe bc 9a 8a 4b 3d ba e2 53 bd 94 22 c4 bc
       -0.03112497 0.049692728 -0.051729895 -0.02394227
000200 c4 b0 33 3b 37 12 63 3d de 07 e7 3d f9 df 4b be
       0.0027418593 0.055437293 0.112807974 -0.19909658
000210 43 07 57 bd 67 50 83 3c de 81 8f 3d 6b 2c c8 bd
       -0.05249716 0.01602955 0.07007192 -0.09774097
000220 6f 6f 99 3d f7 75 e0 3c b7 f6 b2 3c 2a ae d2 3d
       0.074919574 0.0274 0.021846158 0.102871254
000230 79 01 25 3d 67 b7 92 3d 5b 2a e4 bc 71 5c bf bd
       0.040284608 0.071638875 -0.027852228 -0.09343804
000240 88 52 84 bc 9d eb 04 3d dd 21 ad 3d b1 61 00 3d
       -0.016152635 0.03245126 0.084537245 0.031343166
000250 8f f4 e0 3c e2 25 b4 bd dd 3f d8 bd fa 9b 2b 3d
       0.027460365 -0.08796288 -0.10559056 0.041896798
000260 8e 0b 2b 3d eb 4c 05 bd ce b5 4d ba 59 42 b2 bc
       0.041759066 -0.032544058 -0.00078472204 -0.021760153
000270 45 35 8a 3c 3b e3 26 3d 2f d6 8f ba b8 cb ed bc
       0.016871104 0.040744048 -0.0010973866 -0.029027805
000280 46 79 3c 3d 87 84 dd ba 32 11 86 bd b9 39 89 bd
       0.046014093 -0.0016900458 -0.065462485 -0.06700463
000290 68 2e 26 bc 66 a5 60 3d 3f b3 36 bc 79 4f 5d bd
       -0.0101429 0.054845236 -0.011151134 -0.05403087
0002a0 40 55 12 3e 63 c8 ef bd d0 71 12 3e d3 78 02 3e
       0.14290333 -0.117081426 0.14301229 0.12741403
0002b0 c4 1a 8a 3c d9 4b da 3c 96 d7 d0 3d 4a a3 bc 3c
       0.016858466 0.026647495 0.1019737 0.023027081
0002c0 e0 1e 49 bd d1 a2 d7 bd 61 94 2c bd 9d df 1f 3c
       -0.04910171 -0.10529102 -0.042133693 0.009757903
0002d0 38 39 24 3e 6d 6b 18 3d 5f e4 ea 3c b2 64 f9 bd
       0.16037452 0.037211824 0.028673349 -0.12177409
0002e0 26 f5 91 3d 33 ec 16 3e c2 bc 73 3c 0c a5 b5 3c
       0.071268365 0.1473854 0.014876546 0.022173427
0002f0 88 01 4d bd 8a 4f 9c 3d a2 a6 8e bd a2 88 1d bd
       -0.05005029 0.07632358 -0.069653764 -0.03846038
000300 fa 95 8f 3d 5f 3c 48 3d 63 0d 1c bb 9d b8 8f 3d
       0.07011028 0.0488857 -0.002381169 0.07017634
000310 c0 5a a4 bd 38 b1 cd 3d ae 8a 94 bc cd f1 76 bc
       -0.08025122 0.100435674 -0.018132534 -0.015072298
000320 69 53 34 3d 1c a5 1f 3d db 7d 96 bd 42 70 1a 3d
       0.04402486 0.03897582 -0.07348224 0.037704714
000330 56 c8 bf 3d 74 41 fa 3a 22 77 82 3d 24 3c 7c 3d
       0.09364383 0.0019092993 0.06370379 0.061580792
000340 f1 17 16 3c af 22 d7 3c 62 07 ec bd f5 b3 99 bd
       0.0091609815 0.026261656 -0.11524846 -0.07505027
000350 5b 84 33 3d ad 81 29 bd 12 cd 8d 3b ee 8e 8d bd
       0.043827396 -0.041383434 0.004327425 -0.06912027
000360 e5 1a 81 bd 75 1d 13 bd e1 08 c8 3b 19 59 4b bd
       -0.06303958 -0.035916764 0.006104574 -0.049645517
000370 d9 a2 6a bd 3c 8d f3 3c 76 90 6b bd 8b 94 47 3d
       -0.05728421 0.029730432 -0.057510816 0.048725646
000380 33 5e 1c bd eb 0f 72 bd 1c 1d af bc 4b 20 54 bd
       -0.038175773 -0.05909721 -0.021376185 -0.05178861
000390 1d 7f 96 bd be 0a db bd 7f fb 9f bd cf 52 a4 3d
       -0.07348464 -0.10695408 -0.07811641 0.08023607
0003a0 e1 39 ba bd 38 ea 00 3d 5a 27 d1 bd 61 d5 b9 3d
       -0.09093071 0.03147337 -0.10212584 0.09073902
0003b0 8c 80 97 3d 86 3e 86 bc ba 15 2c 3d 89 97 03 bb
       0.07397565 -0.016387235 0.042012908 -0.0020079336
0003c0 a5 4f d6 bd eb 2f e0 3b a4 c0 27 3d e8 c0 cf bb
       -0.1046441 0.0068416498 0.0409552 -0.006340135
0003d0 ab 2e 96 bd 2a 72 4b 3c c2 a5 a5 bd b5 8b a7 3c
       -0.0733312 0.012417356 -0.080882564 0.02045236
0003e0 27 88 64 3c 16 e2 97 bc eb 99 9c bc 03 67 df 3d
       0.013948477 -0.018540423 -0.019116363 0.1090832
0003f0 f8 cf 66 bd ec 89 cb 3c c2 9d 36 3b 48 fe fc bc
       -0.05635068 0.02484604 0.0027865027 -0.03088297

bias f4 [128]
000000 ea 5c 8c 3d b1 ec 12 3d ee fd 57 3d 23 09 7a bd
       0.068536595 0.035870258 0.0527324 -0.06104387
000010 d0 4f 3a 3d 43 6d 26 3d aa ff 87 3d 12 7a 9d bd
       0.04548627 0.040631544 0.06640561 -0.07689299
000020 23 f4 a6 bd 7b 3d 07 3d f5 45 58 bd 00 63 87 bd
       -0.08152034 0.033017617 -0.05280109 -0.066106796
000030 b9 6a b3 bd 9d c8 0a 3d bb fd 4e bd 97 af 7d bb
       -0.0876059 0.033882726 -0.050534945 -0.0038709396
000040 88 71 e7 bd 63 eb 98 bd b0 59 a5 bd f2 2f 82 3c
       -0.11300951 -0.074667715 -0.08073747 0.015892003
000050 ce 49 6c 3d fc 2c 0c be ad e3 6b 3d 69 02 5d be
       0.057687573 -0.13689035 0.057590175 -0.2158295
000060 de 71 0d bd 40 e6 1a bd 04 d1 2c 3c 1a e4 5e bc
       -0.03453242 -0.03781724 0.01054788 -0.013604188
000070 93 a2 85 3d 06 d2 bc bb 6f dd ee 39 2e 6e 3b bd
       0.06525149 -0.0057623414 0.00045559878 -0.045759372
000080 ad 99 b4 bd e8 76 55 bd 24 96 32 3d 2c 2f 99 bc
       -0.08818374 -0.05211535 0.043600217 -0.018699251
000090 e5 49 a0 bd 60 e9 1c bc 54 08 c4 3b 5a 1c ea bb
       -0.07826594 -0.009577125 0.005982438 -0.007144493
0000a0 07 22 d4 bd 2a 63 a9 3c f8 83 4d bd fa 54 80 3b
       -0.10358053 0.020677168 -0.050174683 0.00391638
0000b0 b4 f9 b9 bc e1 80 08 bd 9e b9 22 bd 05 b3 32 bd
       -0.022702076 -0.033326034 -0.0397278 -0.043627758
0000c0 b2 d1 42 bd 8f 06 0b bc a0 b1 a2 bc 52 f1 42 3c
       -0.047563262 -0.00848545 -0.019860089 0.011898356
0000d0 60 bb 18 be d2 65 f7 3c be 26 67 bd 2f 34 a2 be
       -0.14915228 0.030199919 -0.05643343 -0.31680438
0000e0 7a 72 9d 3b 26 1c 85 bc 51 3f 89 3b 11 d7 7e 3d
       0.0048049064 -0.016248774 0.004188456 0.062216822
0000f0 4e 11 97 3b 54 fa 16 3d 09 a0 7a 3c 97 72 a8 bd
       0.004610217 0.036859825 0.015296944 -0.08224981
000100 d9 f1 3d bd f9 ad 0a bd 2b d7 09 bd 65 84 33 bd
       -0.046373222 -0.03385732 -0.033652466 -0.043827433
000110 4e ec f2 3c f7 52 66 3d 4e a1 31 3c de c9 89 3d
       0.029653694 0.056231465 0.010841681 0.06727956
000120 f8 3a 34 bc 67 ed f3 bd e1 5f 07 3c 42 85 98 bc
       -0.011000387 -0.11910515 0.008262605 -0.01861823
000130 5e cb 80 bd 18 06 70 be 7f 19 a7 bc f8 58 ff bd
       -0.06288789 -0.23439825 -0.0203979 -0.12468141
000140 27 75 7b bd da 7b 2a bc 57 b9 11 3b 02 d4 ba 3c
       -0.061391022 -0.010405505 0.0022235715 0.022806171
000150 62 05 50 bd ab 9b 2f be 82 f8 9f be 56 59 91 bd
       -0.050786383 -0.17149226 -0.31244284 -0.070971176
000160 5b ab 12 be 00 37 43 bc 1d 46 32 be 7f 2a 9f bd
       -0.1432318 -0.0119149685 -0.17409559 -0.07771777
000170 c2 3a b9 3c f8 94 73 bd 7c 27 5b bc 2b e4 0e be
       0.022611026 -0.05946824 -0.013376113 -0.13954227
000180 d6 76 4a bd 85 55 76 3d 2a 88 bd bd 06 9f be 3c
       -0.049429737 0.06014015 -0.09254487 0.023269188
000190 8d 1d 5e bd f9 79 85 3d 77 32 71 be 87 12 6f 3d
       -0.0542274 0.06517405 -0.23554407 0.05836728
0001a0 80 ec bc bd 51 f3 df bc 1c c2 0b be a3 4c 5b 3d
       -0.09224796 -0.027337702 -0.13648266 0.053539883
0001b0 49 1d b3 bd 1c 51 2a 3d f0 e4 8d 3d c2 d8 24 bc
       -0.0874582 0.04158126 0.06928432 -0.010061445
0001c0 7c 7d 29 3d 97 13 c4 3b 0a 6f eb 3a 0e 0c 08 be
       0.041379437 0.0059837806 0.0017962169 -0.13285848
0001d0 52 ab a5 bc 10 c2 5d bc 71 45 db bd c1 93 a6 bd
       -0.020223293 -0.013535038 -0.10706604 -0.081336506
0001e0 78 ee ba bc c5 1a 67 3d 3a 57 b3 bd 28 34 bd 3c
       -0.022818789 0.056422014 -0.087568715 0.02309616
0001f0 af e1 d6 3c 5f a4 6c bb eb a3 9c bc 5f a6 f1 3a
       0.026230661 -0.0036108715 -0.01912113 0.0018436423

weight f4 [128, 128]
000000 6a 86 c7 3c 6e 3a 4c 3d e3 71 2c bc 59 fc 77 3d
       0.024356086 0.04986041 -0.0105252 0.06054339
000010 f0 14 d8 3c ce ec 54 3d fa 5a 88 bd 6b 33 35 bd
       0.026377171 0.051983647 -0.066579774 -0.04423849
000020 b6 6c 3a bd 0f fe 83 3c 4c d6 04 bc 53 99 77 bc
       -0.04551383 0.016112356 -0.008107733 -0.015112239
000030 26 d7 4a 3d 58 90 9f bc 61 d0 0a 3e e2 02 7a 3c
       0.049521588 -0.019478008 0.13556053 0.015259476
000040 43 89 51 bd 21 22 35 3c f1 f2 a2 bd f7 1f 8e bb
       -0.051156294 0.0110555 -0.07956494 -0.0043373066
000050 45 3a 7c bd b1 df 87 bd 83 41 2f bd 1a 4a 60 bc
       -0.061579008 -0.066344626 -0.042787086 -0.013689542
000060 9f 56 2f bd 69 4c cc 3c 60 7f 69 bd 3f bc 98 3d
       -0.042807218 0.024938779 -0.05700624 0.0745778
000070 7d 26 45 bd f6 8c 58 3d 9b 35 58 3d 00 ef 82 3d
       -0.04813241 0.052868806 0.052785497 0.06393242
000080 62 21 c0 bd fb c0 02 bc 4f 5f 88 bd 20 b5 7e 3b
       -0.09381367 -0.00798058 -0.06658804 0.0038865283
000090 74 e1 86 3d 97 2c 03 3b 64 ca d0 3c 81 85 1e bd
       0.065859705 0.0020015591 0.025487132 -0.038701538
0000a0 66 70 68 3d 87 4d 84 bd 75 32 75 3d 27 8e 5b bd
       0.056747817 -0.064601 0.059862573 -0.053602364
0000b0 c2 cf 15 bd 48 45 b5 3c 7c 1a 35 bd 4a 24 dc bc
       -0.036575086 0.022127762 -0.04421471 -0.026872773
0000c0 73 5c 46 bb c3 56 40 bd 69 27 62 bc 5f 1a e0 3c
       -0.0030267506 -0.046957742 -0.013803341 0.027356325
0000d0 c6 73 c5 bd e1 75 db bc b1 4d 95 bc 28 76 de bb
       -0.09641223 -0.026789607 -0.018225523 -0.0067889877
0000e0 38 58 07 bd 27 26 03 bc 6b 50 a7 3d ed 90 c0 3a
       -0.033043116 -0.008004702 0.081696354 0.0014691629
0000f0 10 2c 8e bb e6 88 06 3c 05 7c b6 bb e1 a1 96 3c
       -0.0043387488 0.00821135 -0.0055689835 0.018387737
000100 20 53 2e 3d 09 e9 44 bd 94 5d 92 bd e8 da 88 3c
       0.042559743 -0.048073802 -0.07146755 0.016705945
000110 45 cc 2d bd f7 ad 0c bb ee ca 13 3d 49 66 19 bd
       -0.042431135 -0.0021465996 0.0360822 -0.037451062
000120 b7 be 9b 3d fe 92 69 bc 96 c0 9b bc 43 67 7c 3d
       0.07604735 -0.014256237 -0.01901273 0.061621916
000130 fd 31 a3 bd 7b 25 99 bd c5 8c 49 bd 06 08 2c 3d
       -0.07968519 -0.07477852 -0.049206514 0.04199984
000140 09 50 10 3d d2 80 ef 3c d9 7f b7 3d 6b 0e a5 bc
       0.035232577 0.029236231 0.08959932 -0.020148477
000150 fd 29 98 3d 5e 09 43 bd 5a 98 b7 3b e9 b3 52 ba
       0.07429884 -0.047616355 0.0056028785 -0.0008037673
000160 05 f7 9d 3c 92 a2 44 3c 8c fe 56 bb b5 ce ad 3b
       0.019282827 0.01200165 -0.003280553 0.0053041824
000170 27 27 c8 bc d8 67 22 3d d6 46 68 3d 61 eb b6 bd
       -0.024432732 0.039649814 0.05670818 -0.08931614
000180 6e 04 65 bd 75 04 8d bc 07 ea e1 3c 0c 33 b8 3d
       -0.055912428 -0.01721404 0.027577413 0.089941114
000190 39 cf 17 3d 51 ba c1 bc 54 cc a3 3c f8 e2 e8 bc
       0.037062857 -0.023648413 0.019994892 -0.02842854
0001a0 52 b5 5b bc 2a 58 d6 bb 9d 95 b2 3c 79 a7 1e 3c
       -0.013409929 -0.0065412717 0.021799857 0.009683483
0001b0 48 03 cf bc b6 9d 4a 3d 69 41 3b bd d6 68 4b 3c
       -0.02527012 0.04946681 -0.045716677 0.012415132
0001c0 70 35 a5 bd 00 1f 9e 3d fb 48 6f bd 18 31 75 3d
       -0.08066833 0.077207565 -0.05841921 0.059861273
0001d0 dc 99 92 bc 1d 6a d5 3a bc 63 e9 bc 8e 5e 04 3d
       -0.017895631 0.0016282235 -0.02848994 0.032316737
0001e0 88 21 0d 3c 9a c0 82 3d 91 5f d5 3c e6 6c 00 3d
       0.0086139515 0.06384392 0.026046546 0.031353854
0001f0 1e b3 8c 3c f8 ac e3 bc bd 2e ad 3c 3d 0e 22 3d
       0.017175253 -0.027792439 0.02114045 0.03956436
000200 92 88 aa 3c de 17 b9 3c 78 c3 44 bc 2a bc 4a bb
       0.020817075 0.022594389 -0.012009494 -0.0030934908
000210 fd fc 08 3d a7 a1 a9 3b cf da 9c bc 19 21 36 bd
       0.033444393 0.005176741 -0.019147305 -0.044465158
000220 71 a3 d0 ba ad 37 58 bc ab 1f c1 bc 72 da 0c bd
       -0.001591785 -0.013196868 -0.02357467 -0.034388013
000230 a6 6c 35 3d 22 4e 87 3c 06 2d 3b 3d 35 09 fb bb
       0.04429307 0.016516749 0.045697235 -0.0076610097
000240 43 38 84 3d 97 2f cb bd a7 63 91 bd 22 9f 02 3d
       0.064560436 -0.099211864 -0.07099085 0.031890042
000250 27 97 cb bb 76 88 e5 bb 62 6d 10 bc 46 74 08 bd
       -0.006213087 -0.007004793 -0.008815141 -0.033314012
000260 8e e3 5f 3d 85 4c 0c bd 4d d7 53 3c 0f a1 e6 3b
       0.054660372 -0.034252662 0.01292975 0.0070382426
000270 64 06 2e bc 4f 77 39 bb 69 5e bd bc ae 63 c5 3c
       -0.010621641 -0.0028299873 -0.023116307 0.024095383
000280 86 0d 2a bd bd ae 1c 3c e5 8d 9a bc 73 02 97 bc
       -0.041516803 0.009563145 -0.018866489 -0.018433785
000290 22 ed 41 bd a2 f9 5c bc 6f e2 07 bd 6f 15 7c 3d
       -0.047345288 -0.0134872515 -0.03317493 0.06154388
0002a0 31 49 3a bd ec fd 4b 3d 7e 01 08 bd 05 96 4a 3d
       -0.045479957 0.049802706 -0.033204548 0.049459476
0002b0 6d e5 d9 3d b4 22 69 3c 8b 7e 4b 3d 78 d3 6e 3c
       0.106394626 0.014229465 0.049681228 0.014576785
0002c0 27 e3 84 bc 64 df 7c bb f6 96 13 3c be cc 26 bd
       -0.016221596 -0.00385853 0.00900816 -0.0407226
0002d0 de d8 e4 bc 0a 5b 8d bc 01 09 c9 bd 60 0d 7d 3b
       -0.027935442 -0.017255325 -0.098161705 0.0038612708
0002e0 a5 cf 16 bd 65 1e 35 bc b7 3c 85 bc 9e f6 66 3d
       -0.03681912 -0.01105461 -0.016264303 0.056387536
0002f0 be b6 a2 bd 79 5c 88 bc c2 49 cd 3c 5e af ab bc
       -0.079450116 -0.016645657 0.025059585 -0.020957645
000300 2a 16 35 3c d9 de 04 bd cf b7 13 3d 2a 77 4e 39
       0.011052648 -0.032439087 0.036063965 0.00019690083
000310 8b 95 15 3c e9 4e 1b bd 0f 37 44 3d 32 81 13 bd
       0.009129892 -0.03791705 0.04790407 -0.036011882
000320 84 78 98 3d 2c a3 4c bc 9b 07 66 3d c2 4f a0 3d
       0.074448615 -0.012490075 0.056159597 0.078277126
000330 b9 b6 bd 3b 66 bc 1a bd 98 86 1d bd b6 3b a6 3c
       0.0057896045 -0.037777327 -0.038458437 0.020292144
000340 fe 5b d7 bd fd 43 2b bd 46 bf 5b bd 3e 32 ba 3c
       -0.10515593 -0.041812886 -0.05364921 0.022729035
000350 2e e9 bb 3b 4b 01 41 bc 0a b2 ee 3c 5a 96 dc ba
       0.0057345843 -0.011780093 0.02913763 -0.0016829476
000360 85 83 9e 3d 8d 7e 21 3c 8f d8 3b 3d bf ee 3a bd
       0.07739929 0.009856832 0.045860823 -0.045637842
000370 63 07 0e bd ea f0 9e bd 8d e2 84 3d 55 8d 36 bd
       -0.034675013 -0.077607945 0.06488524 -0.04456838
000380 ed 41 e6 3c 84 de 80 3d fb 9c 85 bb 2f 0c 1e bd
       0.028107608 0.062924415 -0.0040775514 -0.038585838
000390 eb 44 0b bb 66 56 74 bd 15 54 a1 3a 76 0b b0 3c
       -0.0021250795 -0.05965271 0.0012308384 0.02148984
0003a0 e2 84 ad bc e8 1d 85 3d 58 34 28 bc 9e 86 2a 3d
       -0.021181528 0.06499845 -0.010266386 0.041632287
0003b0 da 55 33 bd b9 db 04 bc 01 c6 b9 bc 8e a1 7f 3d
       -0.043783046 -0.008109027 -0.022677423 0.06240993
0003c0 60 88 94 bc 1a 40 40 bd d3 c4 09 3d a4 4a 39 3d
       -0.018131435 -0.046936132 0.03363497 0.0452372
0003d0 62 82 d7 3c 8d a3 2d 3d 6b 1d 78 bd 74 4f 3d 3d
       0.026307289 0.042392302 -0.06057493 0.04621835
0003e0 34 b5 d2 bb 3a 33 1a 3d a1 da ae 3d 80 15 53 3d
       -0.0064302925 0.03764651 0.08537794 0.051534176
0003f0 7a 6a ef bc 07 0e 90 bc d8 9f 64 bd 60 27 97 3c
       -0.029225577 -0.017584814 -0.0558165 0.018451393

bias f4 [128]
000000 4f 5f 06 bd 4c a7 a9 bc b7 75 e6 bd 93 58 42 bd
       -0.032805737 -0.020709656 -0.11252921 -0.047447752
000010 c1 5b 90 bd 66 76 02 bd da f8 8f bc 93 77 84 bb
       -0.07048751 -0.031851195 -0.017574716 -0.0040425747
000020 48 f3 01 3d db 6e 5d bd eb 92 98 bc 21 1c 41 bc
       0.03172615 -0.0540608 -0.018624743 -0.011786492
000030 4a 4a 65 bd 8c 04 51 bb c2 b6 f5 bc cf 4a a5 bb
       -0.05597905 -0.003189358 -0.029994372 -0.0050443183
000040 20 de 53 bd c3 7b 47 3c ac fd ad 3c 3a 5e 0a bc
       -0.051725507 0.012175503 0.021239124 -0.008445317
000050 f8 17 42 bc 42 65 52 3c 98 34 88 be d3 23 7e bd
       -0.011846535 0.012841525 -0.26602626 -0.062045883
000060 a6 a4 d3 bc 24 0b 0b be 29 0d ee bc 2a b5 3b bd
       -0.025835346 -0.13578469 -0.02905901 -0.04582707
000070 e8 31 0a 3d b9 c7 98 bc 25 7d 97 bc f6 49 bf 3b
       0.033739 -0.018649923 -0.01849229 0.0058376743
000080 9d 27 b4 bc dc fa 28 3c 6a 62 19 bd ed b1 86 3b
       -0.021991545 0.010313716 -0.03744737 0.004110566
000090 dc 7b ec 3b 27 af 17 be b1 7a c1 be 04 a9 f2 3c
       0.0072169136 -0.14812909 -0.3778892 0.029621609
0000a0 fc c9 cb bc 0f 63 12 bc a0 93 54 be 42 5c bc bd
       -0.024876587 -0.00893475 -0.2075944 -0.09197284
0000b0 01 e3 83 ba ab 65 af bd 58 84 16 bd da ea 00 bd
       -0.0010062159 -0.085643135 -0.036747307 -0.031473972
0000c0 4d 4b 5d bd 15 0a 25 3d d4 c4 83 bd 03 cd dc bc
       -0.05402689 0.040292818 -0.06434026 -0.026953226
0000d0 b2 18 9d 3d 1b a4 c1 bd b4 27 be bc 6f 11 86 bd
       0.07670726 -0.09455129 -0.023212291 -0.06546294
0000e0 26 5c f9 3c 38 ef 49 be 03 4a 84 bd 60 3d d5 bb
       0.030439448 -0.19720161 -0.06459429 -0.0065075606
0000f0 72 5e 4d bd e8 cb 90 bc 46 ec e0 bd 8e 98 8d bc
       -0.0501389 -0.017675355 -0.109825656 -0.017284658
000100 d8 ac d9 3c 8f 79 60 be fb 78 23 be d3 11 e6 3d
       0.026571676 -0.21921371 -0.15964119 0.112338684
000110 d6 a1 d9 3c 67 6c b6 bb 5b 45 0a bc a1 e5 a2 bd
       0.026566427 -0.005567122 -0.008439387 -0.079539545
000120 f7 1e cc 3c 1b ab 38 be 3c c0 9f 3d 0e 95 74 3b
       0.024917109 -0.18034022 0.07800338 0.0037320289
000130 ac f2 10 3c 72 6f 13 be 78 9a 10 be c2 5b 30 be
       0.00884692 -0.14397982 -0.14121425 -0.17222503
000140 36 08 36 bd e0 69 47 bc 72 53 b4 3d 75 05 c7 bc
       -0.044441424 -0.012171239 0.088049784 -0.024294594
000150 6d 17 e6 3c 61 24 b3 bc ca 9d 6a bd 21 5d 30 be
       0.028087342 -0.021867933 -0.057279386 -0.17223026
000160 26 ff 1c be 09 15 01 3c 14 7d ce bd a1 7d 77 3b
       -0.15331706 0.00787855 -0.100824505 0.003776409
000170 e1 6b 2d bd b3 dc 96 3b df e7 cd 3c ad f7 9a bc
       -0.04233921 0.004603946 0.025134979 -0.01891693
000180 9d 83 ef 3b 04 6d 68 bd 3c 5c 34 be a2 1d 63 be
       0.0073093907 -0.05674459 -0.1761331 -0.22179273
000190 8b c4 15 bc 52 29 8b bc 5d 27 2d bd 59 0b b1 3b
       -0.009141098 -0.016987476 -0.042273868 0.005402964
0001a0 1c 67 9f bd d4 52 a9 bd 89 37 dc 3c 34 b8 80 bb
       -0.077833384 -0.08267751 0.02688195 -0.0039282087
0001b0 e3 b8 c4 bc ee 52 f0 bd 09 81 7e bd 99 63 9c 3c
       -0.024013942 -0.117345676 -0.062134776 0.01909046
0001c0 77 c3 9b bc 45 39 67 bc 70 48 25 bc 4b a0 2d bd
       -0.019014103 -0.014112775 -0.010088071 -0.042389195
0001d0 26 c1 c7 bc a3 d2 61 bd f4 3a 37 bd 52 4d 07 be
       -0.024384093 -0.05513252 -0.044733956 -0.13213089
0001e0 06 5d 19 3d 99 31 5a be f2 c6 01 bd 8d 6f f1 bd
       0.03744223 -0.21307983 -0.03168387 -0.11788855
0001f0 31 08 c3 bc 41 3d 16 bd 50 8b 3f bd ac 1c f2 bc
       -0.023807617 -0.03667951 -0.046763718 -0.029554687

weight f4 [3, 128]
000000 f2 91 f2 b8 b5 ad 04 3b 0a 67 2e 3c 63 69 3b bc
       -0.00011566644 0.002024514 0.010644684 -0.0114387
000010 e2 da 50 bc a1 cb 48 3b 9d 44 72 3b f2 a8 c2 b9
       -0.012747498 0.003063895 0.0036967166 -0.00037128438
000020 52 73 3f 3b ca fb 3a 3b 58 e5 e1 3a d2 29 4a bb
       0.0029213023 0.0028531426 0.0017234487 -0.003084768
000030 da f9 19 3c 07 4a 0a bb b9 b4 5e bc ad a3 1b ba
       0.009397948 -0.0021101253 -0.013592892 -0.00059371704
000040 72 9e 71 3b 2b 72 07 bb d8 e6 4a bd 94 a0 20 ba
       0.0036868122 -0.0020667415 -0.049536556 -0.00061274436
000050 a5 7d 52 ba 42 fa f3 ba 01 ef 14 3e 59 5a f5 3a
       -0.0008029587 -0.0018614011 0.14544298 0.0018718942
000060 02 e9 b7 b9 1b d8 37 3c e3 69 a4 3a 6b b7 2a 3d
       -0.00035078084 0.011220957 0.0012543764 0.041678827
000070 6c f0 58 be 8b a5 70 3b e7 96 43 3b a0 21 c3 39
       -0.21185464 0.0036719765 0.0029844583 0.0003721835
000080 0a 59 63 3a 91 85 99 bd 1c d5 0f 3b e3 11 f5 b9
       0.00086726306 -0.07496179 0.0021947091 -0.00046743368
000090 5f 35 72 bb 29 3a a7 3c 61 40 5c 3e 06 82 35 3b
       -0.0036958081 0.020413475 0.21508934 0.0027695908
0000a0 5a be 4c 39 38 6b 08 bb f7 4d a0 bc 6d 0c b8 3d
       0.00019525868 -0.002081586 -0.019568427 0.08986745
0000b0 f5 f1 0d ba 09 60 8e 3c f7 e7 6c bb 69 9c 8b 3b
       -0.00054147776 0.017379778 -0.0036149004 0.004260589
0000c0 83 fa 91 bc 1f fd 82 3b 6a c0 86 3d 81 e4 83 bb
       -0.017819649 0.0039974595 0.06579669 -0.0040250425
0000d0 27 89 89 bc 43 df 18 bc ee ea 81 3a 72 1b 9b 3b
       -0.016789032 -0.0093305735 0.0009911933 0.0047334963
0000e0 d8 35 40 3c 2b 50 a1 3d 8c 38 61 3b 99 df 0d 3b
       0.011731587 0.07876619 0.003436598 0.0021648167
0000f0 15 d0 f4 ba e3 71 a9 bd ad c7 29 bd f3 f6 89 3b
       -0.0018677736 -0.08273675 -0.04145019 0.004210347
000100 a9 35 4d bb 23 65 3c 3d 54 a6 6c 3d 05 48 f8 bd
       -0.0031312502 0.04599489 0.05777581 -0.12123112
000110 c8 a8 4c 3b f2 37 de ba 7a 80 91 3a ac f9 50 3c
       0.003122853 -0.0016953929 0.0011100911 0.012754839
000120 6d 8b 65 bc a5 c6 e5 3c d4 eb 37 be 56 6b 12 bb
       -0.0140102925 0.028048823 -0.17961055 -0.002234181
000130 d4 22 14 bd da f2 6b 3e af 03 57 3c 7b 68 9e 3d
       -0.036166027 0.2304186 0.013123437 0.07734772
000140 bd 43 bd ba da 72 af 3a 99 3b 92 3b b7 1a c5 bc
       -0.0014439743 0.0013385669 0.004462671 -0.02406059
000150 9b 42 38 bb 98 1b a2 ba be 41 8a bb 13 bb 23 3d
       -0.0028115872 -0.0012367843 -0.004219263 0.03997333
000160 91 6e ad 3d 4b 57 e1 3a 71 a8 22 3d 36 9d 5a 39
       0.084683545 0.0017192153 0.03971142 0.00020848666
000170 60 6f c8 3b 2e 1f 41 3b b3 af cb bd d2 5f 0f 3b
       0.0061167926 0.0029468047 -0.09945621 0.0021877182
000180 c0 3a 6a ba 07 0a 8e 3b 40 cd 7e 3d 27 d3 b4 3d
       -0.0008935146 0.0043346914 0.06220746 0.088293366
000190 86 60 18 3b 14 f3 41 3b a4 e6 b7 3b e9 06 0a bb
       0.0023250892 0.0029594349 0.0056122113 -0.0021061248
0001a0 0d 4b b7 bd 09 00 a3 bb 55 ed 40 ba bf 9c 2e bb
       -0.08949862 -0.0049743694 -0.0007359584 -0.002664372
0001b0 8b fa be ba e9 97 fd 3d 20 63 5b bc d2 67 12 ba
       -0.0014570517 0.1238249 -0.013390332 -0.00055849284
0001c0 36 f4 ae 3b 46 1e ee ba c8 3a c8 3d 33 40 38 3c
       0.005339171 -0.0018166981 0.09776837 0.011245775
0001d0 bd 1e 9c 39 64 6d 90 b9 4b 2a 16 bb 5b 66 35 3c
       0.0002977754 -0.00027547323 -0.0022913392 0.011071767
0001e0 f4 b8 7d bd f6 41 76 3d 65 cb 8f bb 6a 09 79 3d
       -0.061943963 0.0601215 -0.00438826 0.060799994
0001f0 b0 d8 79 ba fc 77 ba 3b 28 1a ff 3a 8b eb d3 ba
       -0.0009530885 0.005690573 0.0019462751 -0.001616822
000200 03 ce 7a bb 16 c9 8c 3a 00 17 b6 bd 80 72 0d bc
       -0.0038269765 0.0010741081 -0.08891106 -0.008633256
000210 29 83 e7 3d 20 37 44 ba 98 9b 1f 3b c2 6d 15 39
       0.11304314 -0.0007485021 0.0024354216 0.00014250635
000220 98 b5 e9 39 ad 1a d0 3a d0 a6 b0 3b f1 36 d5 ba
       0.0004457652 0.0015877091 0.0053909793 -0.0016266984
000230 1f 00 04 bd b4 2b 17 3b 69 2b eb 3c 99 63 9d 3b
       -0.032226678 0.002306682 0.028707223 0.0048031327
000240 67 5d fe 3a a9 c4 89 3b 85 ec 03 bd 36 1d 23 3c
       0.0019406498 0.004204352 -0.032207984 0.009955695
000250 76 f9 b0 bb b8 70 30 3d 0f 12 54 bb 5b ac d4 bb
       -0.005400832 0.043076247 -0.0032359397 -0.006490273
000260 eb f4 e1 bb bb 7d 8c bc 7f 10 76 3b 5d ed 66 bc
       -0.0068956516 -0.017149797 0.0037546454 -0.014094678
000270 ff 8d 84 bb 7b 24 2b 3b 1a 3f e5 ba 81 0d 9b ba
       -0.0040452476 0.0026114273 -0.0017490119 -0.0011829586
000280 b6 57 96 ba 4c 3f 6e 3d 73 c1 68 bb 63 fb c6 3b
       -0.0011470232 0.058165833 -0.0035515695 0.006072448
000290 58 01 55 3b 76 b2 34 3e 23 a3 83 3c f4 62 66 bb
       0.0032502022 0.17646202 0.016069 -0.0035154196
0002a0 89 f5 d4 bb fa 6c 48 bb be 0d cb 3d 6a 6b 35 3c
       -0.0064989966 -0.0030582533 0.099147305 0.011072973
0002b0 bc c5 92 3b 78 c3 20 3d 8a b1 86 ba ae 44 9a 3b
       0.004479138 0.039248914 -0.00102763 0.0047078943
0002c0 65 17 db bb 64 3b bc 3a 77 ec e7 bd 20 0c 00 bc
       -0.0066861385 0.0014360962 -0.11324399 -0.007815391
0002d0 3a 66 df 3c b6 99 51 3e a4 41 8d ba 30 6e b2 bb
       0.027270425 0.20468792 -0.0010777009 -0.0054452643
0002e0 df ed 12 be 92 89 dc 3c 9a 13 55 3b 88 29 54 3b
       -0.14348553 0.026921067 0.0032512904 0.0032373387
0002f0 da 24 a8 b9 d7 45 be bc 04 c4 4f bd ba 64 d2 3b
       -0.00032070914 -0.023226662 -0.050724044 0.006420699
000300 2f 35 9e ba 37 16 08 be 52 3c 30 3b ec ad b3 bd
       -0.0012070293 -0.13289724 0.0026891422 -0.08773407
000310 27 0c 18 3c 0e a5 b4 3b 9a 96 0c 3c b9 f3 83 bc
       0.009280241 0.00551284 0.008580828 -0.016107427
000320 3e da 75 bd 1a 89 20 3d f1 26 91 3b ff 74 0b 3a
       -0.060022585 0.03919325 0.004429691 0.0005319863
000330 74 fe 76 bd 08 0f 84 3c 1b c0 96 3c 0f 61 71 bd
       -0.06030126 0.016120449 0.01840215 -0.058930453
000340 40 03 a4 bb be 25 c7 38 67 ac 5a 3b 15 93 58 be
       -0.0050052702 9.4960895e-05 0.003336692 -0.21149857
000350 34 1b 9f 3a 2d 22 b7 3b d6 f0 da bc 21 86 83 bc
       0.0012138844 0.005588791 -0.026726168 -0.016055169
000360 21 dd 07 3c f9 4e a6 3a 39 ef 93 3d 39 79 de bb
       0.008292467 0.0012688331 0.072233625 -0.006789353
000370 90 89 c1 b7 fe 11 f0 ba a5 29 75 3d 5a 6b e1 ba
       -2.307145e-05 -0.0018315909 0.05985417 -0.0017198131
000380 2f e5 fa bb 78 c3 0d 3b f7 c5 0c 3e 71 75 ea 3c
       -0.0076567153 0.00216314 0.13747393 0.028620454
000390 9a 24 0e ba a1 23 06 bc 5c bf 39 bd 0f 54 b0 b9
       -0.0005422324 -0.0081872055 -0.04534851 -0.00033631964
0003a0 7b 67 e8 3c 67 38 82 b9 7f 80 93 3a 40 30 9b 3a
       0.028369656 -0.00024837555 0.0011253505 0.0011839941
0003b0 85 df 6b 3b 79 a2 75 3d 6c a3 0b 3b 0f 2a 58 bb
       0.0035991382 0.0599694 0.0021307124 -0.0032984053
0003c0 32 36 89 3b 83 ae 78 bb 74 ee ad bd 5b cc 32 be
       0.004187369 -0.0037945814 -0.08492747 -0.17460768
0003d0 b6 63 37 ba 4a 4b 73 bc 14 5e 10 3b 2c f5 ed 3d
       -0.0006995754 -0.014849493 0.0022028731 0.116190284
0003e0 6f 6e 73 3d 79 3f f2 3b ec d0 db bb 1f 47 99 bc
       0.05943149 0.0073928204 -0.006708255 -0.018710671
0003f0 00 89 8c 3b 7a 54 41 3b a8 78 08 bb 73 f2 21 bc
       0.0042887926 0.0029499815 -0.002082387 -0.009884465

bias f4 [3]
000000 67 d0 59 be e4 63 f3 3c 85 ed 02 bc
       -0.21270905 0.029710717 -0.007991199
